<?xml version="1.0"?>
<net name="tf2onnx" version="11">
	<layers>
		<layer id="0" name="oak_input" type="Parameter" version="opset1">
			<data shape="1,3,10,165" element_type="f32" />
			<output>
				<port id="0" precision="FP32" names="oak_input">
					<dim>1</dim>
					<dim>3</dim>
					<dim>10</dim>
					<dim>165</dim>
				</port>
			</output>
		</layer>
		<layer id="1" name="const_fold_opt__100" type="Const" version="opset1">
			<data element_type="i64" shape="3" offset="0" size="24" />
			<rt_info>
				<attribute name="precise" version="0" />
			</rt_info>
			<output>
				<port id="0" precision="I64" names="const_fold_opt__100">
					<dim>3</dim>
				</port>
			</output>
		</layer>
		<layer id="2" name="TCN_OAK_WRAPPED_1/reshape_to_sequence_1/Reshape" type="Reshape" version="opset1">
			<data special_zero="true" />
			<input>
				<port id="0" precision="FP32">
					<dim>1</dim>
					<dim>3</dim>
					<dim>10</dim>
					<dim>165</dim>
				</port>
				<port id="1" precision="I64">
					<dim>3</dim>
				</port>
			</input>
			<output>
				<port id="2" precision="FP32" names="TCN_OAK_WRAPPED_1/reshape_to_sequence_1/Reshape:0">
					<dim>1</dim>
					<dim>50</dim>
					<dim>99</dim>
				</port>
			</output>
		</layer>
		<layer id="3" name="Constant_32" type="Const" version="opset1">
			<data element_type="i64" shape="3" offset="24" size="24" />
			<rt_info>
				<attribute name="precise" version="0" />
			</rt_info>
			<output>
				<port id="0" precision="I64">
					<dim>3</dim>
				</port>
			</output>
		</layer>
		<layer id="4" name="Constant_33" type="Const" version="opset1">
			<data element_type="i64" shape="3" offset="48" size="24" />
			<rt_info>
				<attribute name="precise" version="0" />
			</rt_info>
			<output>
				<port id="0" precision="I64">
					<dim>3</dim>
				</port>
			</output>
		</layer>
		<layer id="5" name="Constant_31_compressed" type="Const" version="opset1">
			<data element_type="f16" shape="" offset="72" size="2" />
			<output>
				<port id="0" precision="FP16" />
			</output>
		</layer>
		<layer id="6" name="Constant_31" type="Convert" version="opset1">
			<data destination_type="f32" />
			<rt_info>
				<attribute name="decompression" version="0" />
			</rt_info>
			<input>
				<port id="0" precision="FP16" />
			</input>
			<output>
				<port id="1" precision="FP32" />
			</output>
		</layer>
		<layer id="7" name="TCN_OAK_WRAPPED_1/temporal_block_1/conv1d_1/Pad" type="Pad" version="opset12">
			<data pad_mode="constant" />
			<input>
				<port id="0" precision="FP32">
					<dim>1</dim>
					<dim>50</dim>
					<dim>99</dim>
				</port>
				<port id="1" precision="I64">
					<dim>3</dim>
				</port>
				<port id="2" precision="I64">
					<dim>3</dim>
				</port>
				<port id="3" precision="FP32" />
			</input>
			<output>
				<port id="4" precision="FP32" names="TCN_OAK_WRAPPED_1/temporal_block_1/conv1d_1/Pad:0">
					<dim>1</dim>
					<dim>52</dim>
					<dim>99</dim>
				</port>
			</output>
		</layer>
		<layer id="8" name="const_fold_opt__109" type="Const" version="opset1">
			<data element_type="i64" shape="1" offset="74" size="8" />
			<output>
				<port id="0" precision="I64" names="const_fold_opt__109">
					<dim>1</dim>
				</port>
			</output>
		</layer>
		<layer id="9" name="TCN_OAK_WRAPPED_1/temporal_block_1/conv1d_1/convolution/ExpandDims" type="Unsqueeze" version="opset1">
			<input>
				<port id="0" precision="FP32">
					<dim>1</dim>
					<dim>52</dim>
					<dim>99</dim>
				</port>
				<port id="1" precision="I64">
					<dim>1</dim>
				</port>
			</input>
			<output>
				<port id="2" precision="FP32" names="TCN_OAK_WRAPPED_1/temporal_block_1/conv1d_1/convolution/ExpandDims:0">
					<dim>1</dim>
					<dim>1</dim>
					<dim>52</dim>
					<dim>99</dim>
				</port>
			</output>
		</layer>
		<layer id="10" name="Constant_36" type="Const" version="opset1">
			<data element_type="i64" shape="4" offset="82" size="32" />
			<output>
				<port id="0" precision="I64">
					<dim>4</dim>
				</port>
			</output>
		</layer>
		<layer id="11" name="TCN_OAK_WRAPPED_1/temporal_block_1/conv1d_1/convolution__17" type="Transpose" version="opset1">
			<input>
				<port id="0" precision="FP32">
					<dim>1</dim>
					<dim>1</dim>
					<dim>52</dim>
					<dim>99</dim>
				</port>
				<port id="1" precision="I64">
					<dim>4</dim>
				</port>
			</input>
			<output>
				<port id="2" precision="FP32" names="TCN_OAK_WRAPPED_1/temporal_block_1/conv1d_1/convolution__17:0">
					<dim>1</dim>
					<dim>99</dim>
					<dim>1</dim>
					<dim>52</dim>
				</port>
			</output>
		</layer>
		<layer id="12" name="TCN_OAK_WRAPPED_1/temporal_block_1/conv1d_1/convolution/ExpandDims_1:0_compressed" type="Const" version="opset1">
			<data element_type="f16" shape="64, 99, 1, 3" offset="114" size="38016" />
			<output>
				<port id="0" precision="FP16" names="TCN_OAK_WRAPPED_1/temporal_block_1/conv1d_1/convolution/ExpandDims_1:0">
					<dim>64</dim>
					<dim>99</dim>
					<dim>1</dim>
					<dim>3</dim>
				</port>
			</output>
		</layer>
		<layer id="13" name="TCN_OAK_WRAPPED_1/temporal_block_1/conv1d_1/convolution/ExpandDims_1:0" type="Convert" version="opset1">
			<data destination_type="f32" />
			<rt_info>
				<attribute name="decompression" version="0" />
			</rt_info>
			<input>
				<port id="0" precision="FP16">
					<dim>64</dim>
					<dim>99</dim>
					<dim>1</dim>
					<dim>3</dim>
				</port>
			</input>
			<output>
				<port id="1" precision="FP32">
					<dim>64</dim>
					<dim>99</dim>
					<dim>1</dim>
					<dim>3</dim>
				</port>
			</output>
		</layer>
		<layer id="14" name="TCN_OAK_WRAPPED_1/temporal_block_1/conv1d_1/convolution" type="Convolution" version="opset1">
			<data strides="1, 1" dilations="1, 1" pads_begin="0, 0" pads_end="0, 0" auto_pad="explicit" />
			<input>
				<port id="0" precision="FP32">
					<dim>1</dim>
					<dim>99</dim>
					<dim>1</dim>
					<dim>52</dim>
				</port>
				<port id="1" precision="FP32">
					<dim>64</dim>
					<dim>99</dim>
					<dim>1</dim>
					<dim>3</dim>
				</port>
			</input>
			<output>
				<port id="2" precision="FP32" names="TCN_OAK_WRAPPED_1/temporal_block_1/conv1d_1/convolution:0">
					<dim>1</dim>
					<dim>64</dim>
					<dim>1</dim>
					<dim>50</dim>
				</port>
			</output>
		</layer>
		<layer id="15" name="axes_const__37__88" type="Const" version="opset1">
			<data element_type="i64" shape="1" offset="38130" size="8" />
			<output>
				<port id="0" precision="I64" names="axes_const__37__88">
					<dim>1</dim>
				</port>
			</output>
		</layer>
		<layer id="16" name="TCN_OAK_WRAPPED_1/temporal_block_1/conv1d_1/convolution/Squeeze" type="Squeeze" version="opset1">
			<input>
				<port id="0" precision="FP32">
					<dim>1</dim>
					<dim>64</dim>
					<dim>1</dim>
					<dim>50</dim>
				</port>
				<port id="1" precision="I64">
					<dim>1</dim>
				</port>
			</input>
			<output>
				<port id="2" precision="FP32" names="TCN_OAK_WRAPPED_1/temporal_block_1/conv1d_1/convolution/Squeeze:0">
					<dim>1</dim>
					<dim>64</dim>
					<dim>50</dim>
				</port>
			</output>
		</layer>
		<layer id="17" name="Constant_41" type="Const" version="opset1">
			<data element_type="i64" shape="3" offset="38138" size="24" />
			<output>
				<port id="0" precision="I64">
					<dim>3</dim>
				</port>
			</output>
		</layer>
		<layer id="18" name="TCN_OAK_WRAPPED_1/temporal_block_1/conv1d_1/convolution__18" type="Transpose" version="opset1">
			<input>
				<port id="0" precision="FP32">
					<dim>1</dim>
					<dim>64</dim>
					<dim>50</dim>
				</port>
				<port id="1" precision="I64">
					<dim>3</dim>
				</port>
			</input>
			<output>
				<port id="2" precision="FP32" names="TCN_OAK_WRAPPED_1/temporal_block_1/conv1d_1/convolution__18:0">
					<dim>1</dim>
					<dim>50</dim>
					<dim>64</dim>
				</port>
			</output>
		</layer>
		<layer id="19" name="Constant_2228_compressed" type="Const" version="opset1">
			<data element_type="f16" shape="1, 1, 1" offset="38162" size="2" />
			<output>
				<port id="0" precision="FP16">
					<dim>1</dim>
					<dim>1</dim>
					<dim>1</dim>
				</port>
			</output>
		</layer>
		<layer id="20" name="Constant_2228" type="Convert" version="opset1">
			<data destination_type="f32" />
			<rt_info>
				<attribute name="decompression" version="0" />
			</rt_info>
			<input>
				<port id="0" precision="FP16">
					<dim>1</dim>
					<dim>1</dim>
					<dim>1</dim>
				</port>
			</input>
			<output>
				<port id="1" precision="FP32">
					<dim>1</dim>
					<dim>1</dim>
					<dim>1</dim>
				</port>
			</output>
		</layer>
		<layer id="21" name="Range_49" type="Const" version="opset1">
			<data element_type="i64" shape="1" offset="38130" size="8" />
			<output>
				<port id="0" precision="I64">
					<dim>1</dim>
				</port>
			</output>
		</layer>
		<layer id="22" name="TCN_OAK_WRAPPED_1/temporal_block_1/layer_normalization_1/moments/mean" type="ReduceMean" version="opset1">
			<data keep_dims="true" />
			<input>
				<port id="0" precision="FP32">
					<dim>1</dim>
					<dim>50</dim>
					<dim>64</dim>
				</port>
				<port id="1" precision="I64">
					<dim>1</dim>
				</port>
			</input>
			<output>
				<port id="2" precision="FP32" names="TCN_OAK_WRAPPED_1/temporal_block_1/layer_normalization_1/moments/mean:0">
					<dim>1</dim>
					<dim>50</dim>
					<dim>1</dim>
				</port>
			</output>
		</layer>
		<layer id="23" name="TCN_OAK_WRAPPED_1/temporal_block_1/layer_normalization_1/moments/SquaredDifference" type="Subtract" version="opset1">
			<data auto_broadcast="numpy" />
			<input>
				<port id="0" precision="FP32">
					<dim>1</dim>
					<dim>50</dim>
					<dim>64</dim>
				</port>
				<port id="1" precision="FP32">
					<dim>1</dim>
					<dim>50</dim>
					<dim>1</dim>
				</port>
			</input>
			<output>
				<port id="2" precision="FP32" names="TCN_OAK_WRAPPED_1/temporal_block_1/layer_normalization_1/moments/SquaredDifference:0">
					<dim>1</dim>
					<dim>50</dim>
					<dim>64</dim>
				</port>
			</output>
		</layer>
		<layer id="24" name="TCN_OAK_WRAPPED_1/temporal_block_1/layer_normalization_1/moments/SquaredDifference__20" type="Multiply" version="opset1">
			<data auto_broadcast="numpy" />
			<input>
				<port id="0" precision="FP32">
					<dim>1</dim>
					<dim>50</dim>
					<dim>64</dim>
				</port>
				<port id="1" precision="FP32">
					<dim>1</dim>
					<dim>50</dim>
					<dim>64</dim>
				</port>
			</input>
			<output>
				<port id="2" precision="FP32" names="TCN_OAK_WRAPPED_1/temporal_block_1/layer_normalization_1/moments/SquaredDifference__20:0">
					<dim>1</dim>
					<dim>50</dim>
					<dim>64</dim>
				</port>
			</output>
		</layer>
		<layer id="25" name="Range_62" type="Const" version="opset1">
			<data element_type="i64" shape="1" offset="38130" size="8" />
			<output>
				<port id="0" precision="I64">
					<dim>1</dim>
				</port>
			</output>
		</layer>
		<layer id="26" name="TCN_OAK_WRAPPED_1/temporal_block_1/layer_normalization_1/moments/variance" type="ReduceMean" version="opset1">
			<data keep_dims="true" />
			<input>
				<port id="0" precision="FP32">
					<dim>1</dim>
					<dim>50</dim>
					<dim>64</dim>
				</port>
				<port id="1" precision="I64">
					<dim>1</dim>
				</port>
			</input>
			<output>
				<port id="2" precision="FP32" names="TCN_OAK_WRAPPED_1/temporal_block_1/layer_normalization_1/moments/variance:0">
					<dim>1</dim>
					<dim>50</dim>
					<dim>1</dim>
				</port>
			</output>
		</layer>
		<layer id="27" name="Constant_2227_compressed" type="Const" version="opset1">
			<data element_type="f16" shape="1, 1, 1" offset="38164" size="2" />
			<output>
				<port id="0" precision="FP16">
					<dim>1</dim>
					<dim>1</dim>
					<dim>1</dim>
				</port>
			</output>
		</layer>
		<layer id="28" name="Constant_2227" type="Convert" version="opset1">
			<data destination_type="f32" />
			<rt_info>
				<attribute name="decompression" version="0" />
			</rt_info>
			<input>
				<port id="0" precision="FP16">
					<dim>1</dim>
					<dim>1</dim>
					<dim>1</dim>
				</port>
			</input>
			<output>
				<port id="1" precision="FP32">
					<dim>1</dim>
					<dim>1</dim>
					<dim>1</dim>
				</port>
			</output>
		</layer>
		<layer id="29" name="TCN_OAK_WRAPPED_1/temporal_block_1/layer_normalization_1/add" type="Add" version="opset1">
			<data auto_broadcast="numpy" />
			<input>
				<port id="0" precision="FP32">
					<dim>1</dim>
					<dim>50</dim>
					<dim>1</dim>
				</port>
				<port id="1" precision="FP32">
					<dim>1</dim>
					<dim>1</dim>
					<dim>1</dim>
				</port>
			</input>
			<output>
				<port id="2" precision="FP32" names="TCN_OAK_WRAPPED_1/temporal_block_1/layer_normalization_1/add:0">
					<dim>1</dim>
					<dim>50</dim>
					<dim>1</dim>
				</port>
			</output>
		</layer>
		<layer id="30" name="TCN_OAK_WRAPPED_1/temporal_block_1/layer_normalization_1/Rsqrt" type="Sqrt" version="opset1">
			<input>
				<port id="0" precision="FP32">
					<dim>1</dim>
					<dim>50</dim>
					<dim>1</dim>
				</port>
			</input>
			<output>
				<port id="1" precision="FP32" names="TCN_OAK_WRAPPED_1/temporal_block_1/layer_normalization_1/Rsqrt:0">
					<dim>1</dim>
					<dim>50</dim>
					<dim>1</dim>
				</port>
			</output>
		</layer>
		<layer id="31" name="TCN_OAK_WRAPPED_1/temporal_block_1/layer_normalization_1/Rsqrt__21" type="Divide" version="opset1">
			<data auto_broadcast="numpy" m_pythondiv="true" />
			<input>
				<port id="0" precision="FP32">
					<dim>1</dim>
					<dim>1</dim>
					<dim>1</dim>
				</port>
				<port id="1" precision="FP32">
					<dim>1</dim>
					<dim>50</dim>
					<dim>1</dim>
				</port>
			</input>
			<output>
				<port id="2" precision="FP32" names="TCN_OAK_WRAPPED_1/temporal_block_1/layer_normalization_1/Rsqrt__21:0">
					<dim>1</dim>
					<dim>50</dim>
					<dim>1</dim>
				</port>
			</output>
		</layer>
		<layer id="32" name="TCN_OAK_WRAPPED_1/temporal_block_1/layer_normalization_1/Reshape:0_compressed" type="Const" version="opset1">
			<data element_type="f16" shape="1, 1, 64" offset="38166" size="128" />
			<output>
				<port id="0" precision="FP16" names="TCN_OAK_WRAPPED_1/temporal_block_1/layer_normalization_1/Reshape:0">
					<dim>1</dim>
					<dim>1</dim>
					<dim>64</dim>
				</port>
			</output>
		</layer>
		<layer id="33" name="TCN_OAK_WRAPPED_1/temporal_block_1/layer_normalization_1/Reshape:0" type="Convert" version="opset1">
			<data destination_type="f32" />
			<rt_info>
				<attribute name="decompression" version="0" />
			</rt_info>
			<input>
				<port id="0" precision="FP16">
					<dim>1</dim>
					<dim>1</dim>
					<dim>64</dim>
				</port>
			</input>
			<output>
				<port id="1" precision="FP32">
					<dim>1</dim>
					<dim>1</dim>
					<dim>64</dim>
				</port>
			</output>
		</layer>
		<layer id="34" name="TCN_OAK_WRAPPED_1/temporal_block_1/layer_normalization_1/mul" type="Multiply" version="opset1">
			<data auto_broadcast="numpy" />
			<input>
				<port id="0" precision="FP32">
					<dim>1</dim>
					<dim>50</dim>
					<dim>1</dim>
				</port>
				<port id="1" precision="FP32">
					<dim>1</dim>
					<dim>1</dim>
					<dim>64</dim>
				</port>
			</input>
			<output>
				<port id="2" precision="FP32" names="TCN_OAK_WRAPPED_1/temporal_block_1/layer_normalization_1/mul:0">
					<dim>1</dim>
					<dim>50</dim>
					<dim>64</dim>
				</port>
			</output>
		</layer>
		<layer id="35" name="TCN_OAK_WRAPPED_1/temporal_block_1/layer_normalization_1/mul_2" type="Multiply" version="opset1">
			<data auto_broadcast="numpy" />
			<input>
				<port id="0" precision="FP32">
					<dim>1</dim>
					<dim>50</dim>
					<dim>64</dim>
				</port>
				<port id="1" precision="FP32">
					<dim>1</dim>
					<dim>50</dim>
					<dim>64</dim>
				</port>
			</input>
			<output>
				<port id="2" precision="FP32" names="TCN_OAK_WRAPPED_1/temporal_block_1/layer_normalization_1/mul_2:0">
					<dim>1</dim>
					<dim>50</dim>
					<dim>64</dim>
				</port>
			</output>
		</layer>
		<layer id="36" name="Constant_2229_compressed" type="Const" version="opset1">
			<data element_type="f16" shape="1, 1, 1" offset="38294" size="2" />
			<output>
				<port id="0" precision="FP16">
					<dim>1</dim>
					<dim>1</dim>
					<dim>1</dim>
				</port>
			</output>
		</layer>
		<layer id="37" name="Constant_2229" type="Convert" version="opset1">
			<data destination_type="f32" />
			<rt_info>
				<attribute name="decompression" version="0" />
			</rt_info>
			<input>
				<port id="0" precision="FP16">
					<dim>1</dim>
					<dim>1</dim>
					<dim>1</dim>
				</port>
			</input>
			<output>
				<port id="1" precision="FP32">
					<dim>1</dim>
					<dim>1</dim>
					<dim>1</dim>
				</port>
			</output>
		</layer>
		<layer id="38" name="TCN_OAK_WRAPPED_1/temporal_block_1/layer_normalization_1/Neg" type="Multiply" version="opset1">
			<data auto_broadcast="numpy" />
			<input>
				<port id="0" precision="FP32">
					<dim>1</dim>
					<dim>50</dim>
					<dim>1</dim>
				</port>
				<port id="1" precision="FP32">
					<dim>1</dim>
					<dim>1</dim>
					<dim>1</dim>
				</port>
			</input>
			<output>
				<port id="2" precision="FP32" names="TCN_OAK_WRAPPED_1/temporal_block_1/layer_normalization_1/Neg:0">
					<dim>1</dim>
					<dim>50</dim>
					<dim>1</dim>
				</port>
			</output>
		</layer>
		<layer id="39" name="TCN_OAK_WRAPPED_1/temporal_block_1/layer_normalization_1/mul_1" type="Multiply" version="opset1">
			<data auto_broadcast="numpy" />
			<input>
				<port id="0" precision="FP32">
					<dim>1</dim>
					<dim>50</dim>
					<dim>1</dim>
				</port>
				<port id="1" precision="FP32">
					<dim>1</dim>
					<dim>50</dim>
					<dim>64</dim>
				</port>
			</input>
			<output>
				<port id="2" precision="FP32" names="TCN_OAK_WRAPPED_1/temporal_block_1/layer_normalization_1/mul_1:0">
					<dim>1</dim>
					<dim>50</dim>
					<dim>64</dim>
				</port>
			</output>
		</layer>
		<layer id="40" name="TCN_OAK_WRAPPED_1/temporal_block_1/layer_normalization_1/add_2" type="Add" version="opset1">
			<data auto_broadcast="numpy" />
			<input>
				<port id="0" precision="FP32">
					<dim>1</dim>
					<dim>50</dim>
					<dim>64</dim>
				</port>
				<port id="1" precision="FP32">
					<dim>1</dim>
					<dim>50</dim>
					<dim>64</dim>
				</port>
			</input>
			<output>
				<port id="2" precision="FP32" names="TCN_OAK_WRAPPED_1/temporal_block_1/layer_normalization_1/add_2:0">
					<dim>1</dim>
					<dim>50</dim>
					<dim>64</dim>
				</port>
			</output>
		</layer>
		<layer id="41" name="TCN_OAK_WRAPPED_1/temporal_block_1/activation_1/Relu" type="ReLU" version="opset1">
			<input>
				<port id="0" precision="FP32">
					<dim>1</dim>
					<dim>50</dim>
					<dim>64</dim>
				</port>
			</input>
			<output>
				<port id="1" precision="FP32" names="TCN_OAK_WRAPPED_1/temporal_block_1/activation_1/Relu:0">
					<dim>1</dim>
					<dim>50</dim>
					<dim>64</dim>
				</port>
			</output>
		</layer>
		<layer id="42" name="Constant_76" type="Const" version="opset1">
			<data element_type="i64" shape="3" offset="24" size="24" />
			<rt_info>
				<attribute name="precise" version="0" />
			</rt_info>
			<output>
				<port id="0" precision="I64">
					<dim>3</dim>
				</port>
			</output>
		</layer>
		<layer id="43" name="Constant_77" type="Const" version="opset1">
			<data element_type="i64" shape="3" offset="48" size="24" />
			<rt_info>
				<attribute name="precise" version="0" />
			</rt_info>
			<output>
				<port id="0" precision="I64">
					<dim>3</dim>
				</port>
			</output>
		</layer>
		<layer id="44" name="Constant_75_compressed" type="Const" version="opset1">
			<data element_type="f16" shape="" offset="72" size="2" />
			<output>
				<port id="0" precision="FP16" />
			</output>
		</layer>
		<layer id="45" name="Constant_75" type="Convert" version="opset1">
			<data destination_type="f32" />
			<rt_info>
				<attribute name="decompression" version="0" />
			</rt_info>
			<input>
				<port id="0" precision="FP16" />
			</input>
			<output>
				<port id="1" precision="FP32" />
			</output>
		</layer>
		<layer id="46" name="TCN_OAK_WRAPPED_1/temporal_block_1/conv1d_1_2/Pad" type="Pad" version="opset12">
			<data pad_mode="constant" />
			<input>
				<port id="0" precision="FP32">
					<dim>1</dim>
					<dim>50</dim>
					<dim>64</dim>
				</port>
				<port id="1" precision="I64">
					<dim>3</dim>
				</port>
				<port id="2" precision="I64">
					<dim>3</dim>
				</port>
				<port id="3" precision="FP32" />
			</input>
			<output>
				<port id="4" precision="FP32" names="TCN_OAK_WRAPPED_1/temporal_block_1/conv1d_1_2/Pad:0">
					<dim>1</dim>
					<dim>52</dim>
					<dim>64</dim>
				</port>
			</output>
		</layer>
		<layer id="47" name="TCN_OAK_WRAPPED_1/temporal_block_1/conv1d_1_2/convolution/ExpandDims" type="Unsqueeze" version="opset1">
			<input>
				<port id="0" precision="FP32">
					<dim>1</dim>
					<dim>52</dim>
					<dim>64</dim>
				</port>
				<port id="1" precision="I64">
					<dim>1</dim>
				</port>
			</input>
			<output>
				<port id="2" precision="FP32" names="TCN_OAK_WRAPPED_1/temporal_block_1/conv1d_1_2/convolution/ExpandDims:0">
					<dim>1</dim>
					<dim>1</dim>
					<dim>52</dim>
					<dim>64</dim>
				</port>
			</output>
		</layer>
		<layer id="48" name="Constant_80" type="Const" version="opset1">
			<data element_type="i64" shape="4" offset="82" size="32" />
			<output>
				<port id="0" precision="I64">
					<dim>4</dim>
				</port>
			</output>
		</layer>
		<layer id="49" name="TCN_OAK_WRAPPED_1/temporal_block_1/conv1d_1_2/convolution__26" type="Transpose" version="opset1">
			<input>
				<port id="0" precision="FP32">
					<dim>1</dim>
					<dim>1</dim>
					<dim>52</dim>
					<dim>64</dim>
				</port>
				<port id="1" precision="I64">
					<dim>4</dim>
				</port>
			</input>
			<output>
				<port id="2" precision="FP32" names="TCN_OAK_WRAPPED_1/temporal_block_1/conv1d_1_2/convolution__26:0">
					<dim>1</dim>
					<dim>64</dim>
					<dim>1</dim>
					<dim>52</dim>
				</port>
			</output>
		</layer>
		<layer id="50" name="TCN_OAK_WRAPPED_1/temporal_block_1/conv1d_1_2/convolution/ExpandDims_1:0_compressed" type="Const" version="opset1">
			<data element_type="f16" shape="128, 64, 1, 3" offset="38296" size="49152" />
			<output>
				<port id="0" precision="FP16" names="TCN_OAK_WRAPPED_1/temporal_block_1/conv1d_1_2/convolution/ExpandDims_1:0">
					<dim>128</dim>
					<dim>64</dim>
					<dim>1</dim>
					<dim>3</dim>
				</port>
			</output>
		</layer>
		<layer id="51" name="TCN_OAK_WRAPPED_1/temporal_block_1/conv1d_1_2/convolution/ExpandDims_1:0" type="Convert" version="opset1">
			<data destination_type="f32" />
			<rt_info>
				<attribute name="decompression" version="0" />
			</rt_info>
			<input>
				<port id="0" precision="FP16">
					<dim>128</dim>
					<dim>64</dim>
					<dim>1</dim>
					<dim>3</dim>
				</port>
			</input>
			<output>
				<port id="1" precision="FP32">
					<dim>128</dim>
					<dim>64</dim>
					<dim>1</dim>
					<dim>3</dim>
				</port>
			</output>
		</layer>
		<layer id="52" name="TCN_OAK_WRAPPED_1/temporal_block_1/conv1d_1_2/convolution" type="Convolution" version="opset1">
			<data strides="1, 1" dilations="1, 1" pads_begin="0, 0" pads_end="0, 0" auto_pad="explicit" />
			<input>
				<port id="0" precision="FP32">
					<dim>1</dim>
					<dim>64</dim>
					<dim>1</dim>
					<dim>52</dim>
				</port>
				<port id="1" precision="FP32">
					<dim>128</dim>
					<dim>64</dim>
					<dim>1</dim>
					<dim>3</dim>
				</port>
			</input>
			<output>
				<port id="2" precision="FP32" names="TCN_OAK_WRAPPED_1/temporal_block_1/conv1d_1_2/convolution:0">
					<dim>1</dim>
					<dim>128</dim>
					<dim>1</dim>
					<dim>50</dim>
				</port>
			</output>
		</layer>
		<layer id="53" name="TCN_OAK_WRAPPED_1/temporal_block_1/conv1d_1_2/convolution/Squeeze" type="Squeeze" version="opset1">
			<input>
				<port id="0" precision="FP32">
					<dim>1</dim>
					<dim>128</dim>
					<dim>1</dim>
					<dim>50</dim>
				</port>
				<port id="1" precision="I64">
					<dim>1</dim>
				</port>
			</input>
			<output>
				<port id="2" precision="FP32" names="TCN_OAK_WRAPPED_1/temporal_block_1/conv1d_1_2/convolution/Squeeze:0">
					<dim>1</dim>
					<dim>128</dim>
					<dim>50</dim>
				</port>
			</output>
		</layer>
		<layer id="54" name="Constant_85" type="Const" version="opset1">
			<data element_type="i64" shape="3" offset="38138" size="24" />
			<output>
				<port id="0" precision="I64">
					<dim>3</dim>
				</port>
			</output>
		</layer>
		<layer id="55" name="TCN_OAK_WRAPPED_1/temporal_block_1/conv1d_1_2/convolution__27" type="Transpose" version="opset1">
			<input>
				<port id="0" precision="FP32">
					<dim>1</dim>
					<dim>128</dim>
					<dim>50</dim>
				</port>
				<port id="1" precision="I64">
					<dim>3</dim>
				</port>
			</input>
			<output>
				<port id="2" precision="FP32" names="TCN_OAK_WRAPPED_1/temporal_block_1/conv1d_1_2/convolution__27:0">
					<dim>1</dim>
					<dim>50</dim>
					<dim>128</dim>
				</port>
			</output>
		</layer>
		<layer id="56" name="Constant_2231_compressed" type="Const" version="opset1">
			<data element_type="f16" shape="1, 1, 1" offset="38162" size="2" />
			<output>
				<port id="0" precision="FP16">
					<dim>1</dim>
					<dim>1</dim>
					<dim>1</dim>
				</port>
			</output>
		</layer>
		<layer id="57" name="Constant_2231" type="Convert" version="opset1">
			<data destination_type="f32" />
			<rt_info>
				<attribute name="decompression" version="0" />
			</rt_info>
			<input>
				<port id="0" precision="FP16">
					<dim>1</dim>
					<dim>1</dim>
					<dim>1</dim>
				</port>
			</input>
			<output>
				<port id="1" precision="FP32">
					<dim>1</dim>
					<dim>1</dim>
					<dim>1</dim>
				</port>
			</output>
		</layer>
		<layer id="58" name="Range_93" type="Const" version="opset1">
			<data element_type="i64" shape="1" offset="38130" size="8" />
			<output>
				<port id="0" precision="I64">
					<dim>1</dim>
				</port>
			</output>
		</layer>
		<layer id="59" name="TCN_OAK_WRAPPED_1/temporal_block_1/layer_normalization_1_2/moments/mean" type="ReduceMean" version="opset1">
			<data keep_dims="true" />
			<input>
				<port id="0" precision="FP32">
					<dim>1</dim>
					<dim>50</dim>
					<dim>128</dim>
				</port>
				<port id="1" precision="I64">
					<dim>1</dim>
				</port>
			</input>
			<output>
				<port id="2" precision="FP32" names="TCN_OAK_WRAPPED_1/temporal_block_1/layer_normalization_1_2/moments/mean:0">
					<dim>1</dim>
					<dim>50</dim>
					<dim>1</dim>
				</port>
			</output>
		</layer>
		<layer id="60" name="TCN_OAK_WRAPPED_1/temporal_block_1/layer_normalization_1_2/moments/SquaredDifference" type="Subtract" version="opset1">
			<data auto_broadcast="numpy" />
			<input>
				<port id="0" precision="FP32">
					<dim>1</dim>
					<dim>50</dim>
					<dim>128</dim>
				</port>
				<port id="1" precision="FP32">
					<dim>1</dim>
					<dim>50</dim>
					<dim>1</dim>
				</port>
			</input>
			<output>
				<port id="2" precision="FP32" names="TCN_OAK_WRAPPED_1/temporal_block_1/layer_normalization_1_2/moments/SquaredDifference:0">
					<dim>1</dim>
					<dim>50</dim>
					<dim>128</dim>
				</port>
			</output>
		</layer>
		<layer id="61" name="TCN_OAK_WRAPPED_1/temporal_block_1/layer_normalization_1_2/moments/SquaredDifference__29" type="Multiply" version="opset1">
			<data auto_broadcast="numpy" />
			<input>
				<port id="0" precision="FP32">
					<dim>1</dim>
					<dim>50</dim>
					<dim>128</dim>
				</port>
				<port id="1" precision="FP32">
					<dim>1</dim>
					<dim>50</dim>
					<dim>128</dim>
				</port>
			</input>
			<output>
				<port id="2" precision="FP32" names="TCN_OAK_WRAPPED_1/temporal_block_1/layer_normalization_1_2/moments/SquaredDifference__29:0">
					<dim>1</dim>
					<dim>50</dim>
					<dim>128</dim>
				</port>
			</output>
		</layer>
		<layer id="62" name="Range_106" type="Const" version="opset1">
			<data element_type="i64" shape="1" offset="38130" size="8" />
			<output>
				<port id="0" precision="I64">
					<dim>1</dim>
				</port>
			</output>
		</layer>
		<layer id="63" name="TCN_OAK_WRAPPED_1/temporal_block_1/layer_normalization_1_2/moments/variance" type="ReduceMean" version="opset1">
			<data keep_dims="true" />
			<input>
				<port id="0" precision="FP32">
					<dim>1</dim>
					<dim>50</dim>
					<dim>128</dim>
				</port>
				<port id="1" precision="I64">
					<dim>1</dim>
				</port>
			</input>
			<output>
				<port id="2" precision="FP32" names="TCN_OAK_WRAPPED_1/temporal_block_1/layer_normalization_1_2/moments/variance:0">
					<dim>1</dim>
					<dim>50</dim>
					<dim>1</dim>
				</port>
			</output>
		</layer>
		<layer id="64" name="Constant_2230_compressed" type="Const" version="opset1">
			<data element_type="f16" shape="1, 1, 1" offset="38164" size="2" />
			<output>
				<port id="0" precision="FP16">
					<dim>1</dim>
					<dim>1</dim>
					<dim>1</dim>
				</port>
			</output>
		</layer>
		<layer id="65" name="Constant_2230" type="Convert" version="opset1">
			<data destination_type="f32" />
			<rt_info>
				<attribute name="decompression" version="0" />
			</rt_info>
			<input>
				<port id="0" precision="FP16">
					<dim>1</dim>
					<dim>1</dim>
					<dim>1</dim>
				</port>
			</input>
			<output>
				<port id="1" precision="FP32">
					<dim>1</dim>
					<dim>1</dim>
					<dim>1</dim>
				</port>
			</output>
		</layer>
		<layer id="66" name="TCN_OAK_WRAPPED_1/temporal_block_1/layer_normalization_1_2/add" type="Add" version="opset1">
			<data auto_broadcast="numpy" />
			<input>
				<port id="0" precision="FP32">
					<dim>1</dim>
					<dim>50</dim>
					<dim>1</dim>
				</port>
				<port id="1" precision="FP32">
					<dim>1</dim>
					<dim>1</dim>
					<dim>1</dim>
				</port>
			</input>
			<output>
				<port id="2" precision="FP32" names="TCN_OAK_WRAPPED_1/temporal_block_1/layer_normalization_1_2/add:0">
					<dim>1</dim>
					<dim>50</dim>
					<dim>1</dim>
				</port>
			</output>
		</layer>
		<layer id="67" name="TCN_OAK_WRAPPED_1/temporal_block_1/layer_normalization_1_2/Rsqrt" type="Sqrt" version="opset1">
			<input>
				<port id="0" precision="FP32">
					<dim>1</dim>
					<dim>50</dim>
					<dim>1</dim>
				</port>
			</input>
			<output>
				<port id="1" precision="FP32" names="TCN_OAK_WRAPPED_1/temporal_block_1/layer_normalization_1_2/Rsqrt:0">
					<dim>1</dim>
					<dim>50</dim>
					<dim>1</dim>
				</port>
			</output>
		</layer>
		<layer id="68" name="TCN_OAK_WRAPPED_1/temporal_block_1/layer_normalization_1_2/Rsqrt__30" type="Divide" version="opset1">
			<data auto_broadcast="numpy" m_pythondiv="true" />
			<input>
				<port id="0" precision="FP32">
					<dim>1</dim>
					<dim>1</dim>
					<dim>1</dim>
				</port>
				<port id="1" precision="FP32">
					<dim>1</dim>
					<dim>50</dim>
					<dim>1</dim>
				</port>
			</input>
			<output>
				<port id="2" precision="FP32" names="TCN_OAK_WRAPPED_1/temporal_block_1/layer_normalization_1_2/Rsqrt__30:0">
					<dim>1</dim>
					<dim>50</dim>
					<dim>1</dim>
				</port>
			</output>
		</layer>
		<layer id="69" name="TCN_OAK_WRAPPED_1/temporal_block_2_1/layer_normalization_5_1/Reshape:0_compressed" type="Const" version="opset1">
			<data element_type="f16" shape="1, 1, 128" offset="87448" size="256" />
			<output>
				<port id="0" precision="FP16" names="TCN_OAK_WRAPPED_1/temporal_block_2_1/layer_normalization_5_1/Reshape:0">
					<dim>1</dim>
					<dim>1</dim>
					<dim>128</dim>
				</port>
			</output>
		</layer>
		<layer id="70" name="TCN_OAK_WRAPPED_1/temporal_block_2_1/layer_normalization_5_1/Reshape:0" type="Convert" version="opset1">
			<data destination_type="f32" />
			<rt_info>
				<attribute name="decompression" version="0" />
			</rt_info>
			<input>
				<port id="0" precision="FP16">
					<dim>1</dim>
					<dim>1</dim>
					<dim>128</dim>
				</port>
			</input>
			<output>
				<port id="1" precision="FP32">
					<dim>1</dim>
					<dim>1</dim>
					<dim>128</dim>
				</port>
			</output>
		</layer>
		<layer id="71" name="TCN_OAK_WRAPPED_1/temporal_block_1/layer_normalization_1_2/mul" type="Multiply" version="opset1">
			<data auto_broadcast="numpy" />
			<input>
				<port id="0" precision="FP32">
					<dim>1</dim>
					<dim>50</dim>
					<dim>1</dim>
				</port>
				<port id="1" precision="FP32">
					<dim>1</dim>
					<dim>1</dim>
					<dim>128</dim>
				</port>
			</input>
			<output>
				<port id="2" precision="FP32" names="TCN_OAK_WRAPPED_1/temporal_block_1/layer_normalization_1_2/mul:0">
					<dim>1</dim>
					<dim>50</dim>
					<dim>128</dim>
				</port>
			</output>
		</layer>
		<layer id="72" name="TCN_OAK_WRAPPED_1/temporal_block_1/layer_normalization_1_2/mul_2" type="Multiply" version="opset1">
			<data auto_broadcast="numpy" />
			<input>
				<port id="0" precision="FP32">
					<dim>1</dim>
					<dim>50</dim>
					<dim>128</dim>
				</port>
				<port id="1" precision="FP32">
					<dim>1</dim>
					<dim>50</dim>
					<dim>128</dim>
				</port>
			</input>
			<output>
				<port id="2" precision="FP32" names="TCN_OAK_WRAPPED_1/temporal_block_1/layer_normalization_1_2/mul_2:0">
					<dim>1</dim>
					<dim>50</dim>
					<dim>128</dim>
				</port>
			</output>
		</layer>
		<layer id="73" name="Constant_2232_compressed" type="Const" version="opset1">
			<data element_type="f16" shape="1, 1, 1" offset="38294" size="2" />
			<output>
				<port id="0" precision="FP16">
					<dim>1</dim>
					<dim>1</dim>
					<dim>1</dim>
				</port>
			</output>
		</layer>
		<layer id="74" name="Constant_2232" type="Convert" version="opset1">
			<data destination_type="f32" />
			<rt_info>
				<attribute name="decompression" version="0" />
			</rt_info>
			<input>
				<port id="0" precision="FP16">
					<dim>1</dim>
					<dim>1</dim>
					<dim>1</dim>
				</port>
			</input>
			<output>
				<port id="1" precision="FP32">
					<dim>1</dim>
					<dim>1</dim>
					<dim>1</dim>
				</port>
			</output>
		</layer>
		<layer id="75" name="TCN_OAK_WRAPPED_1/temporal_block_1/layer_normalization_1_2/Neg" type="Multiply" version="opset1">
			<data auto_broadcast="numpy" />
			<input>
				<port id="0" precision="FP32">
					<dim>1</dim>
					<dim>50</dim>
					<dim>1</dim>
				</port>
				<port id="1" precision="FP32">
					<dim>1</dim>
					<dim>1</dim>
					<dim>1</dim>
				</port>
			</input>
			<output>
				<port id="2" precision="FP32" names="TCN_OAK_WRAPPED_1/temporal_block_1/layer_normalization_1_2/Neg:0">
					<dim>1</dim>
					<dim>50</dim>
					<dim>1</dim>
				</port>
			</output>
		</layer>
		<layer id="76" name="TCN_OAK_WRAPPED_1/temporal_block_1/layer_normalization_1_2/mul_1" type="Multiply" version="opset1">
			<data auto_broadcast="numpy" />
			<input>
				<port id="0" precision="FP32">
					<dim>1</dim>
					<dim>50</dim>
					<dim>1</dim>
				</port>
				<port id="1" precision="FP32">
					<dim>1</dim>
					<dim>50</dim>
					<dim>128</dim>
				</port>
			</input>
			<output>
				<port id="2" precision="FP32" names="TCN_OAK_WRAPPED_1/temporal_block_1/layer_normalization_1_2/mul_1:0">
					<dim>1</dim>
					<dim>50</dim>
					<dim>128</dim>
				</port>
			</output>
		</layer>
		<layer id="77" name="TCN_OAK_WRAPPED_1/temporal_block_1/layer_normalization_1_2/add_2" type="Add" version="opset1">
			<data auto_broadcast="numpy" />
			<input>
				<port id="0" precision="FP32">
					<dim>1</dim>
					<dim>50</dim>
					<dim>128</dim>
				</port>
				<port id="1" precision="FP32">
					<dim>1</dim>
					<dim>50</dim>
					<dim>128</dim>
				</port>
			</input>
			<output>
				<port id="2" precision="FP32" names="TCN_OAK_WRAPPED_1/temporal_block_1/layer_normalization_1_2/add_2:0">
					<dim>1</dim>
					<dim>50</dim>
					<dim>128</dim>
				</port>
			</output>
		</layer>
		<layer id="78" name="TCN_OAK_WRAPPED_1/temporal_block_1/activation_1_2/Relu" type="ReLU" version="opset1">
			<input>
				<port id="0" precision="FP32">
					<dim>1</dim>
					<dim>50</dim>
					<dim>128</dim>
				</port>
			</input>
			<output>
				<port id="1" precision="FP32" names="TCN_OAK_WRAPPED_1/temporal_block_1/activation_1_2/Relu:0">
					<dim>1</dim>
					<dim>50</dim>
					<dim>128</dim>
				</port>
			</output>
		</layer>
		<layer id="79" name="TCN_OAK_WRAPPED_1/temporal_block_1/conv1d_2_1/convolution/ExpandDims" type="Unsqueeze" version="opset1">
			<input>
				<port id="0" precision="FP32">
					<dim>1</dim>
					<dim>50</dim>
					<dim>99</dim>
				</port>
				<port id="1" precision="I64">
					<dim>1</dim>
				</port>
			</input>
			<output>
				<port id="2" precision="FP32" names="TCN_OAK_WRAPPED_1/temporal_block_1/conv1d_2_1/convolution/ExpandDims:0">
					<dim>1</dim>
					<dim>1</dim>
					<dim>50</dim>
					<dim>99</dim>
				</port>
			</output>
		</layer>
		<layer id="80" name="Constant_24" type="Const" version="opset1">
			<data element_type="i64" shape="4" offset="82" size="32" />
			<output>
				<port id="0" precision="I64">
					<dim>4</dim>
				</port>
			</output>
		</layer>
		<layer id="81" name="TCN_OAK_WRAPPED_1/temporal_block_1/conv1d_2_1/convolution__10" type="Transpose" version="opset1">
			<input>
				<port id="0" precision="FP32">
					<dim>1</dim>
					<dim>1</dim>
					<dim>50</dim>
					<dim>99</dim>
				</port>
				<port id="1" precision="I64">
					<dim>4</dim>
				</port>
			</input>
			<output>
				<port id="2" precision="FP32" names="TCN_OAK_WRAPPED_1/temporal_block_1/conv1d_2_1/convolution__10:0">
					<dim>1</dim>
					<dim>99</dim>
					<dim>1</dim>
					<dim>50</dim>
				</port>
			</output>
		</layer>
		<layer id="82" name="TCN_OAK_WRAPPED_1/temporal_block_1/conv1d_2_1/convolution/ExpandDims_1:0_compressed" type="Const" version="opset1">
			<data element_type="f16" shape="128, 99, 1, 1" offset="87704" size="25344" />
			<output>
				<port id="0" precision="FP16" names="TCN_OAK_WRAPPED_1/temporal_block_1/conv1d_2_1/convolution/ExpandDims_1:0">
					<dim>128</dim>
					<dim>99</dim>
					<dim>1</dim>
					<dim>1</dim>
				</port>
			</output>
		</layer>
		<layer id="83" name="TCN_OAK_WRAPPED_1/temporal_block_1/conv1d_2_1/convolution/ExpandDims_1:0" type="Convert" version="opset1">
			<data destination_type="f32" />
			<rt_info>
				<attribute name="decompression" version="0" />
			</rt_info>
			<input>
				<port id="0" precision="FP16">
					<dim>128</dim>
					<dim>99</dim>
					<dim>1</dim>
					<dim>1</dim>
				</port>
			</input>
			<output>
				<port id="1" precision="FP32">
					<dim>128</dim>
					<dim>99</dim>
					<dim>1</dim>
					<dim>1</dim>
				</port>
			</output>
		</layer>
		<layer id="84" name="TCN_OAK_WRAPPED_1/temporal_block_1/conv1d_2_1/convolution" type="Convolution" version="opset1">
			<data strides="1, 1" dilations="1, 1" pads_begin="0, 0" pads_end="0, 0" auto_pad="explicit" />
			<input>
				<port id="0" precision="FP32">
					<dim>1</dim>
					<dim>99</dim>
					<dim>1</dim>
					<dim>50</dim>
				</port>
				<port id="1" precision="FP32">
					<dim>128</dim>
					<dim>99</dim>
					<dim>1</dim>
					<dim>1</dim>
				</port>
			</input>
			<output>
				<port id="2" precision="FP32" names="TCN_OAK_WRAPPED_1/temporal_block_1/conv1d_2_1/convolution:0">
					<dim>1</dim>
					<dim>128</dim>
					<dim>1</dim>
					<dim>50</dim>
				</port>
			</output>
		</layer>
		<layer id="85" name="TCN_OAK_WRAPPED_1/temporal_block_1/conv1d_2_1/convolution/Squeeze" type="Squeeze" version="opset1">
			<input>
				<port id="0" precision="FP32">
					<dim>1</dim>
					<dim>128</dim>
					<dim>1</dim>
					<dim>50</dim>
				</port>
				<port id="1" precision="I64">
					<dim>1</dim>
				</port>
			</input>
			<output>
				<port id="2" precision="FP32" names="TCN_OAK_WRAPPED_1/temporal_block_1/conv1d_2_1/convolution/Squeeze:0">
					<dim>1</dim>
					<dim>128</dim>
					<dim>50</dim>
				</port>
			</output>
		</layer>
		<layer id="86" name="Constant_29" type="Const" version="opset1">
			<data element_type="i64" shape="3" offset="38138" size="24" />
			<output>
				<port id="0" precision="I64">
					<dim>3</dim>
				</port>
			</output>
		</layer>
		<layer id="87" name="TCN_OAK_WRAPPED_1/temporal_block_1/conv1d_2_1/convolution__11" type="Transpose" version="opset1">
			<input>
				<port id="0" precision="FP32">
					<dim>1</dim>
					<dim>128</dim>
					<dim>50</dim>
				</port>
				<port id="1" precision="I64">
					<dim>3</dim>
				</port>
			</input>
			<output>
				<port id="2" precision="FP32" names="TCN_OAK_WRAPPED_1/temporal_block_1/conv1d_2_1/convolution__11:0">
					<dim>1</dim>
					<dim>50</dim>
					<dim>128</dim>
				</port>
			</output>
		</layer>
		<layer id="88" name="TCN_OAK_WRAPPED_1/temporal_block_1/add_1/Add" type="Add" version="opset1">
			<data auto_broadcast="numpy" />
			<input>
				<port id="0" precision="FP32">
					<dim>1</dim>
					<dim>50</dim>
					<dim>128</dim>
				</port>
				<port id="1" precision="FP32">
					<dim>1</dim>
					<dim>50</dim>
					<dim>128</dim>
				</port>
			</input>
			<output>
				<port id="2" precision="FP32" names="TCN_OAK_WRAPPED_1/temporal_block_1/add_1/Add:0">
					<dim>1</dim>
					<dim>50</dim>
					<dim>128</dim>
				</port>
			</output>
		</layer>
		<layer id="89" name="Constant_121" type="Const" version="opset1">
			<data element_type="i64" shape="3" offset="113048" size="24" />
			<rt_info>
				<attribute name="precise" version="0" />
			</rt_info>
			<output>
				<port id="0" precision="I64">
					<dim>3</dim>
				</port>
			</output>
		</layer>
		<layer id="90" name="Constant_122" type="Const" version="opset1">
			<data element_type="i64" shape="3" offset="48" size="24" />
			<rt_info>
				<attribute name="precise" version="0" />
			</rt_info>
			<output>
				<port id="0" precision="I64">
					<dim>3</dim>
				</port>
			</output>
		</layer>
		<layer id="91" name="Constant_120_compressed" type="Const" version="opset1">
			<data element_type="f16" shape="" offset="72" size="2" />
			<output>
				<port id="0" precision="FP16" />
			</output>
		</layer>
		<layer id="92" name="Constant_120" type="Convert" version="opset1">
			<data destination_type="f32" />
			<rt_info>
				<attribute name="decompression" version="0" />
			</rt_info>
			<input>
				<port id="0" precision="FP16" />
			</input>
			<output>
				<port id="1" precision="FP32" />
			</output>
		</layer>
		<layer id="93" name="TCN_OAK_WRAPPED_1/temporal_block_1_2/conv1d_3_1/Pad" type="Pad" version="opset12">
			<data pad_mode="constant" />
			<input>
				<port id="0" precision="FP32">
					<dim>1</dim>
					<dim>50</dim>
					<dim>128</dim>
				</port>
				<port id="1" precision="I64">
					<dim>3</dim>
				</port>
				<port id="2" precision="I64">
					<dim>3</dim>
				</port>
				<port id="3" precision="FP32" />
			</input>
			<output>
				<port id="4" precision="FP32" names="TCN_OAK_WRAPPED_1/temporal_block_1_2/conv1d_3_1/Pad:0">
					<dim>1</dim>
					<dim>54</dim>
					<dim>128</dim>
				</port>
			</output>
		</layer>
		<layer id="94" name="TCN_OAK_WRAPPED_1/temporal_block_1_2/conv1d_3_1/convolution/ExpandDims" type="Unsqueeze" version="opset1">
			<input>
				<port id="0" precision="FP32">
					<dim>1</dim>
					<dim>54</dim>
					<dim>128</dim>
				</port>
				<port id="1" precision="I64">
					<dim>1</dim>
				</port>
			</input>
			<output>
				<port id="2" precision="FP32" names="TCN_OAK_WRAPPED_1/temporal_block_1_2/conv1d_3_1/convolution/ExpandDims:0">
					<dim>1</dim>
					<dim>1</dim>
					<dim>54</dim>
					<dim>128</dim>
				</port>
			</output>
		</layer>
		<layer id="95" name="Constant_125" type="Const" version="opset1">
			<data element_type="i64" shape="4" offset="82" size="32" />
			<output>
				<port id="0" precision="I64">
					<dim>4</dim>
				</port>
			</output>
		</layer>
		<layer id="96" name="TCN_OAK_WRAPPED_1/temporal_block_1_2/conv1d_3_1/convolution__35" type="Transpose" version="opset1">
			<input>
				<port id="0" precision="FP32">
					<dim>1</dim>
					<dim>1</dim>
					<dim>54</dim>
					<dim>128</dim>
				</port>
				<port id="1" precision="I64">
					<dim>4</dim>
				</port>
			</input>
			<output>
				<port id="2" precision="FP32" names="TCN_OAK_WRAPPED_1/temporal_block_1_2/conv1d_3_1/convolution__35:0">
					<dim>1</dim>
					<dim>128</dim>
					<dim>1</dim>
					<dim>54</dim>
				</port>
			</output>
		</layer>
		<layer id="97" name="TCN_OAK_WRAPPED_1/temporal_block_1_2/conv1d_3_1/convolution/ExpandDims_1:0_compressed" type="Const" version="opset1">
			<data element_type="f16" shape="64, 128, 1, 3" offset="113072" size="49152" />
			<output>
				<port id="0" precision="FP16" names="TCN_OAK_WRAPPED_1/temporal_block_1_2/conv1d_3_1/convolution/ExpandDims_1:0">
					<dim>64</dim>
					<dim>128</dim>
					<dim>1</dim>
					<dim>3</dim>
				</port>
			</output>
		</layer>
		<layer id="98" name="TCN_OAK_WRAPPED_1/temporal_block_1_2/conv1d_3_1/convolution/ExpandDims_1:0" type="Convert" version="opset1">
			<data destination_type="f32" />
			<rt_info>
				<attribute name="decompression" version="0" />
			</rt_info>
			<input>
				<port id="0" precision="FP16">
					<dim>64</dim>
					<dim>128</dim>
					<dim>1</dim>
					<dim>3</dim>
				</port>
			</input>
			<output>
				<port id="1" precision="FP32">
					<dim>64</dim>
					<dim>128</dim>
					<dim>1</dim>
					<dim>3</dim>
				</port>
			</output>
		</layer>
		<layer id="99" name="TCN_OAK_WRAPPED_1/temporal_block_1_2/conv1d_3_1/convolution" type="Convolution" version="opset1">
			<data strides="1, 1" dilations="1, 2" pads_begin="0, 0" pads_end="0, 0" auto_pad="explicit" />
			<input>
				<port id="0" precision="FP32">
					<dim>1</dim>
					<dim>128</dim>
					<dim>1</dim>
					<dim>54</dim>
				</port>
				<port id="1" precision="FP32">
					<dim>64</dim>
					<dim>128</dim>
					<dim>1</dim>
					<dim>3</dim>
				</port>
			</input>
			<output>
				<port id="2" precision="FP32" names="TCN_OAK_WRAPPED_1/temporal_block_1_2/conv1d_3_1/convolution:0">
					<dim>1</dim>
					<dim>64</dim>
					<dim>1</dim>
					<dim>50</dim>
				</port>
			</output>
		</layer>
		<layer id="100" name="TCN_OAK_WRAPPED_1/temporal_block_1_2/conv1d_3_1/convolution/Squeeze" type="Squeeze" version="opset1">
			<input>
				<port id="0" precision="FP32">
					<dim>1</dim>
					<dim>64</dim>
					<dim>1</dim>
					<dim>50</dim>
				</port>
				<port id="1" precision="I64">
					<dim>1</dim>
				</port>
			</input>
			<output>
				<port id="2" precision="FP32" names="TCN_OAK_WRAPPED_1/temporal_block_1_2/conv1d_3_1/convolution/Squeeze:0">
					<dim>1</dim>
					<dim>64</dim>
					<dim>50</dim>
				</port>
			</output>
		</layer>
		<layer id="101" name="Constant_130" type="Const" version="opset1">
			<data element_type="i64" shape="3" offset="38138" size="24" />
			<output>
				<port id="0" precision="I64">
					<dim>3</dim>
				</port>
			</output>
		</layer>
		<layer id="102" name="TCN_OAK_WRAPPED_1/temporal_block_1_2/conv1d_3_1/convolution__36" type="Transpose" version="opset1">
			<input>
				<port id="0" precision="FP32">
					<dim>1</dim>
					<dim>64</dim>
					<dim>50</dim>
				</port>
				<port id="1" precision="I64">
					<dim>3</dim>
				</port>
			</input>
			<output>
				<port id="2" precision="FP32" names="TCN_OAK_WRAPPED_1/temporal_block_1_2/conv1d_3_1/convolution__36:0">
					<dim>1</dim>
					<dim>50</dim>
					<dim>64</dim>
				</port>
			</output>
		</layer>
		<layer id="103" name="Constant_2234_compressed" type="Const" version="opset1">
			<data element_type="f16" shape="1, 1, 1" offset="38162" size="2" />
			<output>
				<port id="0" precision="FP16">
					<dim>1</dim>
					<dim>1</dim>
					<dim>1</dim>
				</port>
			</output>
		</layer>
		<layer id="104" name="Constant_2234" type="Convert" version="opset1">
			<data destination_type="f32" />
			<rt_info>
				<attribute name="decompression" version="0" />
			</rt_info>
			<input>
				<port id="0" precision="FP16">
					<dim>1</dim>
					<dim>1</dim>
					<dim>1</dim>
				</port>
			</input>
			<output>
				<port id="1" precision="FP32">
					<dim>1</dim>
					<dim>1</dim>
					<dim>1</dim>
				</port>
			</output>
		</layer>
		<layer id="105" name="Range_138" type="Const" version="opset1">
			<data element_type="i64" shape="1" offset="38130" size="8" />
			<output>
				<port id="0" precision="I64">
					<dim>1</dim>
				</port>
			</output>
		</layer>
		<layer id="106" name="TCN_OAK_WRAPPED_1/temporal_block_1_2/layer_normalization_2_1/moments/mean" type="ReduceMean" version="opset1">
			<data keep_dims="true" />
			<input>
				<port id="0" precision="FP32">
					<dim>1</dim>
					<dim>50</dim>
					<dim>64</dim>
				</port>
				<port id="1" precision="I64">
					<dim>1</dim>
				</port>
			</input>
			<output>
				<port id="2" precision="FP32" names="TCN_OAK_WRAPPED_1/temporal_block_1_2/layer_normalization_2_1/moments/mean:0">
					<dim>1</dim>
					<dim>50</dim>
					<dim>1</dim>
				</port>
			</output>
		</layer>
		<layer id="107" name="TCN_OAK_WRAPPED_1/temporal_block_1_2/layer_normalization_2_1/moments/SquaredDifference" type="Subtract" version="opset1">
			<data auto_broadcast="numpy" />
			<input>
				<port id="0" precision="FP32">
					<dim>1</dim>
					<dim>50</dim>
					<dim>64</dim>
				</port>
				<port id="1" precision="FP32">
					<dim>1</dim>
					<dim>50</dim>
					<dim>1</dim>
				</port>
			</input>
			<output>
				<port id="2" precision="FP32" names="TCN_OAK_WRAPPED_1/temporal_block_1_2/layer_normalization_2_1/moments/SquaredDifference:0">
					<dim>1</dim>
					<dim>50</dim>
					<dim>64</dim>
				</port>
			</output>
		</layer>
		<layer id="108" name="TCN_OAK_WRAPPED_1/temporal_block_1_2/layer_normalization_2_1/moments/SquaredDifference__38" type="Multiply" version="opset1">
			<data auto_broadcast="numpy" />
			<input>
				<port id="0" precision="FP32">
					<dim>1</dim>
					<dim>50</dim>
					<dim>64</dim>
				</port>
				<port id="1" precision="FP32">
					<dim>1</dim>
					<dim>50</dim>
					<dim>64</dim>
				</port>
			</input>
			<output>
				<port id="2" precision="FP32" names="TCN_OAK_WRAPPED_1/temporal_block_1_2/layer_normalization_2_1/moments/SquaredDifference__38:0">
					<dim>1</dim>
					<dim>50</dim>
					<dim>64</dim>
				</port>
			</output>
		</layer>
		<layer id="109" name="Range_151" type="Const" version="opset1">
			<data element_type="i64" shape="1" offset="38130" size="8" />
			<output>
				<port id="0" precision="I64">
					<dim>1</dim>
				</port>
			</output>
		</layer>
		<layer id="110" name="TCN_OAK_WRAPPED_1/temporal_block_1_2/layer_normalization_2_1/moments/variance" type="ReduceMean" version="opset1">
			<data keep_dims="true" />
			<input>
				<port id="0" precision="FP32">
					<dim>1</dim>
					<dim>50</dim>
					<dim>64</dim>
				</port>
				<port id="1" precision="I64">
					<dim>1</dim>
				</port>
			</input>
			<output>
				<port id="2" precision="FP32" names="TCN_OAK_WRAPPED_1/temporal_block_1_2/layer_normalization_2_1/moments/variance:0">
					<dim>1</dim>
					<dim>50</dim>
					<dim>1</dim>
				</port>
			</output>
		</layer>
		<layer id="111" name="Constant_2233_compressed" type="Const" version="opset1">
			<data element_type="f16" shape="1, 1, 1" offset="38164" size="2" />
			<output>
				<port id="0" precision="FP16">
					<dim>1</dim>
					<dim>1</dim>
					<dim>1</dim>
				</port>
			</output>
		</layer>
		<layer id="112" name="Constant_2233" type="Convert" version="opset1">
			<data destination_type="f32" />
			<rt_info>
				<attribute name="decompression" version="0" />
			</rt_info>
			<input>
				<port id="0" precision="FP16">
					<dim>1</dim>
					<dim>1</dim>
					<dim>1</dim>
				</port>
			</input>
			<output>
				<port id="1" precision="FP32">
					<dim>1</dim>
					<dim>1</dim>
					<dim>1</dim>
				</port>
			</output>
		</layer>
		<layer id="113" name="TCN_OAK_WRAPPED_1/temporal_block_1_2/layer_normalization_2_1/add" type="Add" version="opset1">
			<data auto_broadcast="numpy" />
			<input>
				<port id="0" precision="FP32">
					<dim>1</dim>
					<dim>50</dim>
					<dim>1</dim>
				</port>
				<port id="1" precision="FP32">
					<dim>1</dim>
					<dim>1</dim>
					<dim>1</dim>
				</port>
			</input>
			<output>
				<port id="2" precision="FP32" names="TCN_OAK_WRAPPED_1/temporal_block_1_2/layer_normalization_2_1/add:0">
					<dim>1</dim>
					<dim>50</dim>
					<dim>1</dim>
				</port>
			</output>
		</layer>
		<layer id="114" name="TCN_OAK_WRAPPED_1/temporal_block_1_2/layer_normalization_2_1/Rsqrt" type="Sqrt" version="opset1">
			<input>
				<port id="0" precision="FP32">
					<dim>1</dim>
					<dim>50</dim>
					<dim>1</dim>
				</port>
			</input>
			<output>
				<port id="1" precision="FP32" names="TCN_OAK_WRAPPED_1/temporal_block_1_2/layer_normalization_2_1/Rsqrt:0">
					<dim>1</dim>
					<dim>50</dim>
					<dim>1</dim>
				</port>
			</output>
		</layer>
		<layer id="115" name="TCN_OAK_WRAPPED_1/temporal_block_1_2/layer_normalization_2_1/Rsqrt__39" type="Divide" version="opset1">
			<data auto_broadcast="numpy" m_pythondiv="true" />
			<input>
				<port id="0" precision="FP32">
					<dim>1</dim>
					<dim>1</dim>
					<dim>1</dim>
				</port>
				<port id="1" precision="FP32">
					<dim>1</dim>
					<dim>50</dim>
					<dim>1</dim>
				</port>
			</input>
			<output>
				<port id="2" precision="FP32" names="TCN_OAK_WRAPPED_1/temporal_block_1_2/layer_normalization_2_1/Rsqrt__39:0">
					<dim>1</dim>
					<dim>50</dim>
					<dim>1</dim>
				</port>
			</output>
		</layer>
		<layer id="116" name="TCN_OAK_WRAPPED_1/temporal_block_1_2/layer_normalization_2_1/mul" type="Multiply" version="opset1">
			<data auto_broadcast="numpy" />
			<input>
				<port id="0" precision="FP32">
					<dim>1</dim>
					<dim>50</dim>
					<dim>1</dim>
				</port>
				<port id="1" precision="FP32">
					<dim>1</dim>
					<dim>1</dim>
					<dim>64</dim>
				</port>
			</input>
			<output>
				<port id="2" precision="FP32" names="TCN_OAK_WRAPPED_1/temporal_block_1_2/layer_normalization_2_1/mul:0">
					<dim>1</dim>
					<dim>50</dim>
					<dim>64</dim>
				</port>
			</output>
		</layer>
		<layer id="117" name="TCN_OAK_WRAPPED_1/temporal_block_1_2/layer_normalization_2_1/mul_2" type="Multiply" version="opset1">
			<data auto_broadcast="numpy" />
			<input>
				<port id="0" precision="FP32">
					<dim>1</dim>
					<dim>50</dim>
					<dim>64</dim>
				</port>
				<port id="1" precision="FP32">
					<dim>1</dim>
					<dim>50</dim>
					<dim>64</dim>
				</port>
			</input>
			<output>
				<port id="2" precision="FP32" names="TCN_OAK_WRAPPED_1/temporal_block_1_2/layer_normalization_2_1/mul_2:0">
					<dim>1</dim>
					<dim>50</dim>
					<dim>64</dim>
				</port>
			</output>
		</layer>
		<layer id="118" name="Constant_2235_compressed" type="Const" version="opset1">
			<data element_type="f16" shape="1, 1, 1" offset="38294" size="2" />
			<output>
				<port id="0" precision="FP16">
					<dim>1</dim>
					<dim>1</dim>
					<dim>1</dim>
				</port>
			</output>
		</layer>
		<layer id="119" name="Constant_2235" type="Convert" version="opset1">
			<data destination_type="f32" />
			<rt_info>
				<attribute name="decompression" version="0" />
			</rt_info>
			<input>
				<port id="0" precision="FP16">
					<dim>1</dim>
					<dim>1</dim>
					<dim>1</dim>
				</port>
			</input>
			<output>
				<port id="1" precision="FP32">
					<dim>1</dim>
					<dim>1</dim>
					<dim>1</dim>
				</port>
			</output>
		</layer>
		<layer id="120" name="TCN_OAK_WRAPPED_1/temporal_block_1_2/layer_normalization_2_1/Neg" type="Multiply" version="opset1">
			<data auto_broadcast="numpy" />
			<input>
				<port id="0" precision="FP32">
					<dim>1</dim>
					<dim>50</dim>
					<dim>1</dim>
				</port>
				<port id="1" precision="FP32">
					<dim>1</dim>
					<dim>1</dim>
					<dim>1</dim>
				</port>
			</input>
			<output>
				<port id="2" precision="FP32" names="TCN_OAK_WRAPPED_1/temporal_block_1_2/layer_normalization_2_1/Neg:0">
					<dim>1</dim>
					<dim>50</dim>
					<dim>1</dim>
				</port>
			</output>
		</layer>
		<layer id="121" name="TCN_OAK_WRAPPED_1/temporal_block_1_2/layer_normalization_2_1/mul_1" type="Multiply" version="opset1">
			<data auto_broadcast="numpy" />
			<input>
				<port id="0" precision="FP32">
					<dim>1</dim>
					<dim>50</dim>
					<dim>1</dim>
				</port>
				<port id="1" precision="FP32">
					<dim>1</dim>
					<dim>50</dim>
					<dim>64</dim>
				</port>
			</input>
			<output>
				<port id="2" precision="FP32" names="TCN_OAK_WRAPPED_1/temporal_block_1_2/layer_normalization_2_1/mul_1:0">
					<dim>1</dim>
					<dim>50</dim>
					<dim>64</dim>
				</port>
			</output>
		</layer>
		<layer id="122" name="TCN_OAK_WRAPPED_1/temporal_block_1_2/layer_normalization_2_1/add_2" type="Add" version="opset1">
			<data auto_broadcast="numpy" />
			<input>
				<port id="0" precision="FP32">
					<dim>1</dim>
					<dim>50</dim>
					<dim>64</dim>
				</port>
				<port id="1" precision="FP32">
					<dim>1</dim>
					<dim>50</dim>
					<dim>64</dim>
				</port>
			</input>
			<output>
				<port id="2" precision="FP32" names="TCN_OAK_WRAPPED_1/temporal_block_1_2/layer_normalization_2_1/add_2:0">
					<dim>1</dim>
					<dim>50</dim>
					<dim>64</dim>
				</port>
			</output>
		</layer>
		<layer id="123" name="TCN_OAK_WRAPPED_1/temporal_block_1_2/activation_2_1/Relu" type="ReLU" version="opset1">
			<input>
				<port id="0" precision="FP32">
					<dim>1</dim>
					<dim>50</dim>
					<dim>64</dim>
				</port>
			</input>
			<output>
				<port id="1" precision="FP32" names="TCN_OAK_WRAPPED_1/temporal_block_1_2/activation_2_1/Relu:0">
					<dim>1</dim>
					<dim>50</dim>
					<dim>64</dim>
				</port>
			</output>
		</layer>
		<layer id="124" name="Constant_165" type="Const" version="opset1">
			<data element_type="i64" shape="3" offset="113048" size="24" />
			<rt_info>
				<attribute name="precise" version="0" />
			</rt_info>
			<output>
				<port id="0" precision="I64">
					<dim>3</dim>
				</port>
			</output>
		</layer>
		<layer id="125" name="Constant_166" type="Const" version="opset1">
			<data element_type="i64" shape="3" offset="48" size="24" />
			<rt_info>
				<attribute name="precise" version="0" />
			</rt_info>
			<output>
				<port id="0" precision="I64">
					<dim>3</dim>
				</port>
			</output>
		</layer>
		<layer id="126" name="Constant_164_compressed" type="Const" version="opset1">
			<data element_type="f16" shape="" offset="72" size="2" />
			<output>
				<port id="0" precision="FP16" />
			</output>
		</layer>
		<layer id="127" name="Constant_164" type="Convert" version="opset1">
			<data destination_type="f32" />
			<rt_info>
				<attribute name="decompression" version="0" />
			</rt_info>
			<input>
				<port id="0" precision="FP16" />
			</input>
			<output>
				<port id="1" precision="FP32" />
			</output>
		</layer>
		<layer id="128" name="TCN_OAK_WRAPPED_1/temporal_block_1_2/conv1d_4_1/Pad" type="Pad" version="opset12">
			<data pad_mode="constant" />
			<input>
				<port id="0" precision="FP32">
					<dim>1</dim>
					<dim>50</dim>
					<dim>64</dim>
				</port>
				<port id="1" precision="I64">
					<dim>3</dim>
				</port>
				<port id="2" precision="I64">
					<dim>3</dim>
				</port>
				<port id="3" precision="FP32" />
			</input>
			<output>
				<port id="4" precision="FP32" names="TCN_OAK_WRAPPED_1/temporal_block_1_2/conv1d_4_1/Pad:0">
					<dim>1</dim>
					<dim>54</dim>
					<dim>64</dim>
				</port>
			</output>
		</layer>
		<layer id="129" name="TCN_OAK_WRAPPED_1/temporal_block_1_2/conv1d_4_1/convolution/ExpandDims" type="Unsqueeze" version="opset1">
			<input>
				<port id="0" precision="FP32">
					<dim>1</dim>
					<dim>54</dim>
					<dim>64</dim>
				</port>
				<port id="1" precision="I64">
					<dim>1</dim>
				</port>
			</input>
			<output>
				<port id="2" precision="FP32" names="TCN_OAK_WRAPPED_1/temporal_block_1_2/conv1d_4_1/convolution/ExpandDims:0">
					<dim>1</dim>
					<dim>1</dim>
					<dim>54</dim>
					<dim>64</dim>
				</port>
			</output>
		</layer>
		<layer id="130" name="Constant_169" type="Const" version="opset1">
			<data element_type="i64" shape="4" offset="82" size="32" />
			<output>
				<port id="0" precision="I64">
					<dim>4</dim>
				</port>
			</output>
		</layer>
		<layer id="131" name="TCN_OAK_WRAPPED_1/temporal_block_1_2/conv1d_4_1/convolution__44" type="Transpose" version="opset1">
			<input>
				<port id="0" precision="FP32">
					<dim>1</dim>
					<dim>1</dim>
					<dim>54</dim>
					<dim>64</dim>
				</port>
				<port id="1" precision="I64">
					<dim>4</dim>
				</port>
			</input>
			<output>
				<port id="2" precision="FP32" names="TCN_OAK_WRAPPED_1/temporal_block_1_2/conv1d_4_1/convolution__44:0">
					<dim>1</dim>
					<dim>64</dim>
					<dim>1</dim>
					<dim>54</dim>
				</port>
			</output>
		</layer>
		<layer id="132" name="TCN_OAK_WRAPPED_1/temporal_block_1_2/conv1d_4_1/convolution/ExpandDims_1:0_compressed" type="Const" version="opset1">
			<data element_type="f16" shape="128, 64, 1, 3" offset="162224" size="49152" />
			<output>
				<port id="0" precision="FP16" names="TCN_OAK_WRAPPED_1/temporal_block_1_2/conv1d_4_1/convolution/ExpandDims_1:0">
					<dim>128</dim>
					<dim>64</dim>
					<dim>1</dim>
					<dim>3</dim>
				</port>
			</output>
		</layer>
		<layer id="133" name="TCN_OAK_WRAPPED_1/temporal_block_1_2/conv1d_4_1/convolution/ExpandDims_1:0" type="Convert" version="opset1">
			<data destination_type="f32" />
			<rt_info>
				<attribute name="decompression" version="0" />
			</rt_info>
			<input>
				<port id="0" precision="FP16">
					<dim>128</dim>
					<dim>64</dim>
					<dim>1</dim>
					<dim>3</dim>
				</port>
			</input>
			<output>
				<port id="1" precision="FP32">
					<dim>128</dim>
					<dim>64</dim>
					<dim>1</dim>
					<dim>3</dim>
				</port>
			</output>
		</layer>
		<layer id="134" name="TCN_OAK_WRAPPED_1/temporal_block_1_2/conv1d_4_1/convolution" type="Convolution" version="opset1">
			<data strides="1, 1" dilations="1, 2" pads_begin="0, 0" pads_end="0, 0" auto_pad="explicit" />
			<input>
				<port id="0" precision="FP32">
					<dim>1</dim>
					<dim>64</dim>
					<dim>1</dim>
					<dim>54</dim>
				</port>
				<port id="1" precision="FP32">
					<dim>128</dim>
					<dim>64</dim>
					<dim>1</dim>
					<dim>3</dim>
				</port>
			</input>
			<output>
				<port id="2" precision="FP32" names="TCN_OAK_WRAPPED_1/temporal_block_1_2/conv1d_4_1/convolution:0">
					<dim>1</dim>
					<dim>128</dim>
					<dim>1</dim>
					<dim>50</dim>
				</port>
			</output>
		</layer>
		<layer id="135" name="TCN_OAK_WRAPPED_1/temporal_block_1_2/conv1d_4_1/convolution/Squeeze" type="Squeeze" version="opset1">
			<input>
				<port id="0" precision="FP32">
					<dim>1</dim>
					<dim>128</dim>
					<dim>1</dim>
					<dim>50</dim>
				</port>
				<port id="1" precision="I64">
					<dim>1</dim>
				</port>
			</input>
			<output>
				<port id="2" precision="FP32" names="TCN_OAK_WRAPPED_1/temporal_block_1_2/conv1d_4_1/convolution/Squeeze:0">
					<dim>1</dim>
					<dim>128</dim>
					<dim>50</dim>
				</port>
			</output>
		</layer>
		<layer id="136" name="Constant_174" type="Const" version="opset1">
			<data element_type="i64" shape="3" offset="38138" size="24" />
			<output>
				<port id="0" precision="I64">
					<dim>3</dim>
				</port>
			</output>
		</layer>
		<layer id="137" name="TCN_OAK_WRAPPED_1/temporal_block_1_2/conv1d_4_1/convolution__45" type="Transpose" version="opset1">
			<input>
				<port id="0" precision="FP32">
					<dim>1</dim>
					<dim>128</dim>
					<dim>50</dim>
				</port>
				<port id="1" precision="I64">
					<dim>3</dim>
				</port>
			</input>
			<output>
				<port id="2" precision="FP32" names="TCN_OAK_WRAPPED_1/temporal_block_1_2/conv1d_4_1/convolution__45:0">
					<dim>1</dim>
					<dim>50</dim>
					<dim>128</dim>
				</port>
			</output>
		</layer>
		<layer id="138" name="Constant_2237_compressed" type="Const" version="opset1">
			<data element_type="f16" shape="1, 1, 1" offset="38162" size="2" />
			<output>
				<port id="0" precision="FP16">
					<dim>1</dim>
					<dim>1</dim>
					<dim>1</dim>
				</port>
			</output>
		</layer>
		<layer id="139" name="Constant_2237" type="Convert" version="opset1">
			<data destination_type="f32" />
			<rt_info>
				<attribute name="decompression" version="0" />
			</rt_info>
			<input>
				<port id="0" precision="FP16">
					<dim>1</dim>
					<dim>1</dim>
					<dim>1</dim>
				</port>
			</input>
			<output>
				<port id="1" precision="FP32">
					<dim>1</dim>
					<dim>1</dim>
					<dim>1</dim>
				</port>
			</output>
		</layer>
		<layer id="140" name="Range_182" type="Const" version="opset1">
			<data element_type="i64" shape="1" offset="38130" size="8" />
			<output>
				<port id="0" precision="I64">
					<dim>1</dim>
				</port>
			</output>
		</layer>
		<layer id="141" name="TCN_OAK_WRAPPED_1/temporal_block_1_2/layer_normalization_3_1/moments/mean" type="ReduceMean" version="opset1">
			<data keep_dims="true" />
			<input>
				<port id="0" precision="FP32">
					<dim>1</dim>
					<dim>50</dim>
					<dim>128</dim>
				</port>
				<port id="1" precision="I64">
					<dim>1</dim>
				</port>
			</input>
			<output>
				<port id="2" precision="FP32" names="TCN_OAK_WRAPPED_1/temporal_block_1_2/layer_normalization_3_1/moments/mean:0">
					<dim>1</dim>
					<dim>50</dim>
					<dim>1</dim>
				</port>
			</output>
		</layer>
		<layer id="142" name="TCN_OAK_WRAPPED_1/temporal_block_1_2/layer_normalization_3_1/moments/SquaredDifference" type="Subtract" version="opset1">
			<data auto_broadcast="numpy" />
			<input>
				<port id="0" precision="FP32">
					<dim>1</dim>
					<dim>50</dim>
					<dim>128</dim>
				</port>
				<port id="1" precision="FP32">
					<dim>1</dim>
					<dim>50</dim>
					<dim>1</dim>
				</port>
			</input>
			<output>
				<port id="2" precision="FP32" names="TCN_OAK_WRAPPED_1/temporal_block_1_2/layer_normalization_3_1/moments/SquaredDifference:0">
					<dim>1</dim>
					<dim>50</dim>
					<dim>128</dim>
				</port>
			</output>
		</layer>
		<layer id="143" name="TCN_OAK_WRAPPED_1/temporal_block_1_2/layer_normalization_3_1/moments/SquaredDifference__47" type="Multiply" version="opset1">
			<data auto_broadcast="numpy" />
			<input>
				<port id="0" precision="FP32">
					<dim>1</dim>
					<dim>50</dim>
					<dim>128</dim>
				</port>
				<port id="1" precision="FP32">
					<dim>1</dim>
					<dim>50</dim>
					<dim>128</dim>
				</port>
			</input>
			<output>
				<port id="2" precision="FP32" names="TCN_OAK_WRAPPED_1/temporal_block_1_2/layer_normalization_3_1/moments/SquaredDifference__47:0">
					<dim>1</dim>
					<dim>50</dim>
					<dim>128</dim>
				</port>
			</output>
		</layer>
		<layer id="144" name="Range_195" type="Const" version="opset1">
			<data element_type="i64" shape="1" offset="38130" size="8" />
			<output>
				<port id="0" precision="I64">
					<dim>1</dim>
				</port>
			</output>
		</layer>
		<layer id="145" name="TCN_OAK_WRAPPED_1/temporal_block_1_2/layer_normalization_3_1/moments/variance" type="ReduceMean" version="opset1">
			<data keep_dims="true" />
			<input>
				<port id="0" precision="FP32">
					<dim>1</dim>
					<dim>50</dim>
					<dim>128</dim>
				</port>
				<port id="1" precision="I64">
					<dim>1</dim>
				</port>
			</input>
			<output>
				<port id="2" precision="FP32" names="TCN_OAK_WRAPPED_1/temporal_block_1_2/layer_normalization_3_1/moments/variance:0">
					<dim>1</dim>
					<dim>50</dim>
					<dim>1</dim>
				</port>
			</output>
		</layer>
		<layer id="146" name="Constant_2236_compressed" type="Const" version="opset1">
			<data element_type="f16" shape="1, 1, 1" offset="38164" size="2" />
			<output>
				<port id="0" precision="FP16">
					<dim>1</dim>
					<dim>1</dim>
					<dim>1</dim>
				</port>
			</output>
		</layer>
		<layer id="147" name="Constant_2236" type="Convert" version="opset1">
			<data destination_type="f32" />
			<rt_info>
				<attribute name="decompression" version="0" />
			</rt_info>
			<input>
				<port id="0" precision="FP16">
					<dim>1</dim>
					<dim>1</dim>
					<dim>1</dim>
				</port>
			</input>
			<output>
				<port id="1" precision="FP32">
					<dim>1</dim>
					<dim>1</dim>
					<dim>1</dim>
				</port>
			</output>
		</layer>
		<layer id="148" name="TCN_OAK_WRAPPED_1/temporal_block_1_2/layer_normalization_3_1/add" type="Add" version="opset1">
			<data auto_broadcast="numpy" />
			<input>
				<port id="0" precision="FP32">
					<dim>1</dim>
					<dim>50</dim>
					<dim>1</dim>
				</port>
				<port id="1" precision="FP32">
					<dim>1</dim>
					<dim>1</dim>
					<dim>1</dim>
				</port>
			</input>
			<output>
				<port id="2" precision="FP32" names="TCN_OAK_WRAPPED_1/temporal_block_1_2/layer_normalization_3_1/add:0">
					<dim>1</dim>
					<dim>50</dim>
					<dim>1</dim>
				</port>
			</output>
		</layer>
		<layer id="149" name="TCN_OAK_WRAPPED_1/temporal_block_1_2/layer_normalization_3_1/Rsqrt" type="Sqrt" version="opset1">
			<input>
				<port id="0" precision="FP32">
					<dim>1</dim>
					<dim>50</dim>
					<dim>1</dim>
				</port>
			</input>
			<output>
				<port id="1" precision="FP32" names="TCN_OAK_WRAPPED_1/temporal_block_1_2/layer_normalization_3_1/Rsqrt:0">
					<dim>1</dim>
					<dim>50</dim>
					<dim>1</dim>
				</port>
			</output>
		</layer>
		<layer id="150" name="TCN_OAK_WRAPPED_1/temporal_block_1_2/layer_normalization_3_1/Rsqrt__48" type="Divide" version="opset1">
			<data auto_broadcast="numpy" m_pythondiv="true" />
			<input>
				<port id="0" precision="FP32">
					<dim>1</dim>
					<dim>1</dim>
					<dim>1</dim>
				</port>
				<port id="1" precision="FP32">
					<dim>1</dim>
					<dim>50</dim>
					<dim>1</dim>
				</port>
			</input>
			<output>
				<port id="2" precision="FP32" names="TCN_OAK_WRAPPED_1/temporal_block_1_2/layer_normalization_3_1/Rsqrt__48:0">
					<dim>1</dim>
					<dim>50</dim>
					<dim>1</dim>
				</port>
			</output>
		</layer>
		<layer id="151" name="TCN_OAK_WRAPPED_1/temporal_block_1_2/layer_normalization_3_1/mul" type="Multiply" version="opset1">
			<data auto_broadcast="numpy" />
			<input>
				<port id="0" precision="FP32">
					<dim>1</dim>
					<dim>50</dim>
					<dim>1</dim>
				</port>
				<port id="1" precision="FP32">
					<dim>1</dim>
					<dim>1</dim>
					<dim>128</dim>
				</port>
			</input>
			<output>
				<port id="2" precision="FP32" names="TCN_OAK_WRAPPED_1/temporal_block_1_2/layer_normalization_3_1/mul:0">
					<dim>1</dim>
					<dim>50</dim>
					<dim>128</dim>
				</port>
			</output>
		</layer>
		<layer id="152" name="TCN_OAK_WRAPPED_1/temporal_block_1_2/layer_normalization_3_1/mul_2" type="Multiply" version="opset1">
			<data auto_broadcast="numpy" />
			<input>
				<port id="0" precision="FP32">
					<dim>1</dim>
					<dim>50</dim>
					<dim>128</dim>
				</port>
				<port id="1" precision="FP32">
					<dim>1</dim>
					<dim>50</dim>
					<dim>128</dim>
				</port>
			</input>
			<output>
				<port id="2" precision="FP32" names="TCN_OAK_WRAPPED_1/temporal_block_1_2/layer_normalization_3_1/mul_2:0">
					<dim>1</dim>
					<dim>50</dim>
					<dim>128</dim>
				</port>
			</output>
		</layer>
		<layer id="153" name="Constant_2238_compressed" type="Const" version="opset1">
			<data element_type="f16" shape="1, 1, 1" offset="38294" size="2" />
			<output>
				<port id="0" precision="FP16">
					<dim>1</dim>
					<dim>1</dim>
					<dim>1</dim>
				</port>
			</output>
		</layer>
		<layer id="154" name="Constant_2238" type="Convert" version="opset1">
			<data destination_type="f32" />
			<rt_info>
				<attribute name="decompression" version="0" />
			</rt_info>
			<input>
				<port id="0" precision="FP16">
					<dim>1</dim>
					<dim>1</dim>
					<dim>1</dim>
				</port>
			</input>
			<output>
				<port id="1" precision="FP32">
					<dim>1</dim>
					<dim>1</dim>
					<dim>1</dim>
				</port>
			</output>
		</layer>
		<layer id="155" name="TCN_OAK_WRAPPED_1/temporal_block_1_2/layer_normalization_3_1/Neg" type="Multiply" version="opset1">
			<data auto_broadcast="numpy" />
			<input>
				<port id="0" precision="FP32">
					<dim>1</dim>
					<dim>50</dim>
					<dim>1</dim>
				</port>
				<port id="1" precision="FP32">
					<dim>1</dim>
					<dim>1</dim>
					<dim>1</dim>
				</port>
			</input>
			<output>
				<port id="2" precision="FP32" names="TCN_OAK_WRAPPED_1/temporal_block_1_2/layer_normalization_3_1/Neg:0">
					<dim>1</dim>
					<dim>50</dim>
					<dim>1</dim>
				</port>
			</output>
		</layer>
		<layer id="156" name="TCN_OAK_WRAPPED_1/temporal_block_1_2/layer_normalization_3_1/mul_1" type="Multiply" version="opset1">
			<data auto_broadcast="numpy" />
			<input>
				<port id="0" precision="FP32">
					<dim>1</dim>
					<dim>50</dim>
					<dim>1</dim>
				</port>
				<port id="1" precision="FP32">
					<dim>1</dim>
					<dim>50</dim>
					<dim>128</dim>
				</port>
			</input>
			<output>
				<port id="2" precision="FP32" names="TCN_OAK_WRAPPED_1/temporal_block_1_2/layer_normalization_3_1/mul_1:0">
					<dim>1</dim>
					<dim>50</dim>
					<dim>128</dim>
				</port>
			</output>
		</layer>
		<layer id="157" name="TCN_OAK_WRAPPED_1/temporal_block_1_2/layer_normalization_3_1/add_2" type="Add" version="opset1">
			<data auto_broadcast="numpy" />
			<input>
				<port id="0" precision="FP32">
					<dim>1</dim>
					<dim>50</dim>
					<dim>128</dim>
				</port>
				<port id="1" precision="FP32">
					<dim>1</dim>
					<dim>50</dim>
					<dim>128</dim>
				</port>
			</input>
			<output>
				<port id="2" precision="FP32" names="TCN_OAK_WRAPPED_1/temporal_block_1_2/layer_normalization_3_1/add_2:0">
					<dim>1</dim>
					<dim>50</dim>
					<dim>128</dim>
				</port>
			</output>
		</layer>
		<layer id="158" name="TCN_OAK_WRAPPED_1/temporal_block_1_2/activation_3_1/Relu" type="ReLU" version="opset1">
			<input>
				<port id="0" precision="FP32">
					<dim>1</dim>
					<dim>50</dim>
					<dim>128</dim>
				</port>
			</input>
			<output>
				<port id="1" precision="FP32" names="TCN_OAK_WRAPPED_1/temporal_block_1_2/activation_3_1/Relu:0">
					<dim>1</dim>
					<dim>50</dim>
					<dim>128</dim>
				</port>
			</output>
		</layer>
		<layer id="159" name="TCN_OAK_WRAPPED_1/temporal_block_1_2/add_1_1/Add" type="Add" version="opset1">
			<data auto_broadcast="numpy" />
			<input>
				<port id="0" precision="FP32">
					<dim>1</dim>
					<dim>50</dim>
					<dim>128</dim>
				</port>
				<port id="1" precision="FP32">
					<dim>1</dim>
					<dim>50</dim>
					<dim>128</dim>
				</port>
			</input>
			<output>
				<port id="2" precision="FP32" names="TCN_OAK_WRAPPED_1/temporal_block_1_2/add_1_1/Add:0">
					<dim>1</dim>
					<dim>50</dim>
					<dim>128</dim>
				</port>
			</output>
		</layer>
		<layer id="160" name="Constant_210" type="Const" version="opset1">
			<data element_type="i64" shape="3" offset="211376" size="24" />
			<rt_info>
				<attribute name="precise" version="0" />
			</rt_info>
			<output>
				<port id="0" precision="I64">
					<dim>3</dim>
				</port>
			</output>
		</layer>
		<layer id="161" name="Constant_211" type="Const" version="opset1">
			<data element_type="i64" shape="3" offset="48" size="24" />
			<rt_info>
				<attribute name="precise" version="0" />
			</rt_info>
			<output>
				<port id="0" precision="I64">
					<dim>3</dim>
				</port>
			</output>
		</layer>
		<layer id="162" name="Constant_209_compressed" type="Const" version="opset1">
			<data element_type="f16" shape="" offset="72" size="2" />
			<output>
				<port id="0" precision="FP16" />
			</output>
		</layer>
		<layer id="163" name="Constant_209" type="Convert" version="opset1">
			<data destination_type="f32" />
			<rt_info>
				<attribute name="decompression" version="0" />
			</rt_info>
			<input>
				<port id="0" precision="FP16" />
			</input>
			<output>
				<port id="1" precision="FP32" />
			</output>
		</layer>
		<layer id="164" name="TCN_OAK_WRAPPED_1/temporal_block_2_1/conv1d_5_1/Pad" type="Pad" version="opset12">
			<data pad_mode="constant" />
			<input>
				<port id="0" precision="FP32">
					<dim>1</dim>
					<dim>50</dim>
					<dim>128</dim>
				</port>
				<port id="1" precision="I64">
					<dim>3</dim>
				</port>
				<port id="2" precision="I64">
					<dim>3</dim>
				</port>
				<port id="3" precision="FP32" />
			</input>
			<output>
				<port id="4" precision="FP32" names="TCN_OAK_WRAPPED_1/temporal_block_2_1/conv1d_5_1/Pad:0">
					<dim>1</dim>
					<dim>58</dim>
					<dim>128</dim>
				</port>
			</output>
		</layer>
		<layer id="165" name="TCN_OAK_WRAPPED_1/temporal_block_2_1/conv1d_5_1/convolution/ExpandDims" type="Unsqueeze" version="opset1">
			<input>
				<port id="0" precision="FP32">
					<dim>1</dim>
					<dim>58</dim>
					<dim>128</dim>
				</port>
				<port id="1" precision="I64">
					<dim>1</dim>
				</port>
			</input>
			<output>
				<port id="2" precision="FP32" names="TCN_OAK_WRAPPED_1/temporal_block_2_1/conv1d_5_1/convolution/ExpandDims:0">
					<dim>1</dim>
					<dim>1</dim>
					<dim>58</dim>
					<dim>128</dim>
				</port>
			</output>
		</layer>
		<layer id="166" name="Constant_214" type="Const" version="opset1">
			<data element_type="i64" shape="4" offset="82" size="32" />
			<output>
				<port id="0" precision="I64">
					<dim>4</dim>
				</port>
			</output>
		</layer>
		<layer id="167" name="TCN_OAK_WRAPPED_1/temporal_block_2_1/conv1d_5_1/convolution__53" type="Transpose" version="opset1">
			<input>
				<port id="0" precision="FP32">
					<dim>1</dim>
					<dim>1</dim>
					<dim>58</dim>
					<dim>128</dim>
				</port>
				<port id="1" precision="I64">
					<dim>4</dim>
				</port>
			</input>
			<output>
				<port id="2" precision="FP32" names="TCN_OAK_WRAPPED_1/temporal_block_2_1/conv1d_5_1/convolution__53:0">
					<dim>1</dim>
					<dim>128</dim>
					<dim>1</dim>
					<dim>58</dim>
				</port>
			</output>
		</layer>
		<layer id="168" name="TCN_OAK_WRAPPED_1/temporal_block_2_1/conv1d_5_1/convolution/ExpandDims_1:0_compressed" type="Const" version="opset1">
			<data element_type="f16" shape="64, 128, 1, 3" offset="211400" size="49152" />
			<output>
				<port id="0" precision="FP16" names="TCN_OAK_WRAPPED_1/temporal_block_2_1/conv1d_5_1/convolution/ExpandDims_1:0">
					<dim>64</dim>
					<dim>128</dim>
					<dim>1</dim>
					<dim>3</dim>
				</port>
			</output>
		</layer>
		<layer id="169" name="TCN_OAK_WRAPPED_1/temporal_block_2_1/conv1d_5_1/convolution/ExpandDims_1:0" type="Convert" version="opset1">
			<data destination_type="f32" />
			<rt_info>
				<attribute name="decompression" version="0" />
			</rt_info>
			<input>
				<port id="0" precision="FP16">
					<dim>64</dim>
					<dim>128</dim>
					<dim>1</dim>
					<dim>3</dim>
				</port>
			</input>
			<output>
				<port id="1" precision="FP32">
					<dim>64</dim>
					<dim>128</dim>
					<dim>1</dim>
					<dim>3</dim>
				</port>
			</output>
		</layer>
		<layer id="170" name="TCN_OAK_WRAPPED_1/temporal_block_2_1/conv1d_5_1/convolution" type="Convolution" version="opset1">
			<data strides="1, 1" dilations="1, 4" pads_begin="0, 0" pads_end="0, 0" auto_pad="explicit" />
			<input>
				<port id="0" precision="FP32">
					<dim>1</dim>
					<dim>128</dim>
					<dim>1</dim>
					<dim>58</dim>
				</port>
				<port id="1" precision="FP32">
					<dim>64</dim>
					<dim>128</dim>
					<dim>1</dim>
					<dim>3</dim>
				</port>
			</input>
			<output>
				<port id="2" precision="FP32" names="TCN_OAK_WRAPPED_1/temporal_block_2_1/conv1d_5_1/convolution:0">
					<dim>1</dim>
					<dim>64</dim>
					<dim>1</dim>
					<dim>50</dim>
				</port>
			</output>
		</layer>
		<layer id="171" name="TCN_OAK_WRAPPED_1/temporal_block_2_1/conv1d_5_1/convolution/Squeeze" type="Squeeze" version="opset1">
			<input>
				<port id="0" precision="FP32">
					<dim>1</dim>
					<dim>64</dim>
					<dim>1</dim>
					<dim>50</dim>
				</port>
				<port id="1" precision="I64">
					<dim>1</dim>
				</port>
			</input>
			<output>
				<port id="2" precision="FP32" names="TCN_OAK_WRAPPED_1/temporal_block_2_1/conv1d_5_1/convolution/Squeeze:0">
					<dim>1</dim>
					<dim>64</dim>
					<dim>50</dim>
				</port>
			</output>
		</layer>
		<layer id="172" name="Constant_219" type="Const" version="opset1">
			<data element_type="i64" shape="3" offset="38138" size="24" />
			<output>
				<port id="0" precision="I64">
					<dim>3</dim>
				</port>
			</output>
		</layer>
		<layer id="173" name="TCN_OAK_WRAPPED_1/temporal_block_2_1/conv1d_5_1/convolution__54" type="Transpose" version="opset1">
			<input>
				<port id="0" precision="FP32">
					<dim>1</dim>
					<dim>64</dim>
					<dim>50</dim>
				</port>
				<port id="1" precision="I64">
					<dim>3</dim>
				</port>
			</input>
			<output>
				<port id="2" precision="FP32" names="TCN_OAK_WRAPPED_1/temporal_block_2_1/conv1d_5_1/convolution__54:0">
					<dim>1</dim>
					<dim>50</dim>
					<dim>64</dim>
				</port>
			</output>
		</layer>
		<layer id="174" name="Constant_2240_compressed" type="Const" version="opset1">
			<data element_type="f16" shape="1, 1, 1" offset="38162" size="2" />
			<output>
				<port id="0" precision="FP16">
					<dim>1</dim>
					<dim>1</dim>
					<dim>1</dim>
				</port>
			</output>
		</layer>
		<layer id="175" name="Constant_2240" type="Convert" version="opset1">
			<data destination_type="f32" />
			<rt_info>
				<attribute name="decompression" version="0" />
			</rt_info>
			<input>
				<port id="0" precision="FP16">
					<dim>1</dim>
					<dim>1</dim>
					<dim>1</dim>
				</port>
			</input>
			<output>
				<port id="1" precision="FP32">
					<dim>1</dim>
					<dim>1</dim>
					<dim>1</dim>
				</port>
			</output>
		</layer>
		<layer id="176" name="Range_227" type="Const" version="opset1">
			<data element_type="i64" shape="1" offset="38130" size="8" />
			<output>
				<port id="0" precision="I64">
					<dim>1</dim>
				</port>
			</output>
		</layer>
		<layer id="177" name="TCN_OAK_WRAPPED_1/temporal_block_2_1/layer_normalization_4_1/moments/mean" type="ReduceMean" version="opset1">
			<data keep_dims="true" />
			<input>
				<port id="0" precision="FP32">
					<dim>1</dim>
					<dim>50</dim>
					<dim>64</dim>
				</port>
				<port id="1" precision="I64">
					<dim>1</dim>
				</port>
			</input>
			<output>
				<port id="2" precision="FP32" names="TCN_OAK_WRAPPED_1/temporal_block_2_1/layer_normalization_4_1/moments/mean:0">
					<dim>1</dim>
					<dim>50</dim>
					<dim>1</dim>
				</port>
			</output>
		</layer>
		<layer id="178" name="TCN_OAK_WRAPPED_1/temporal_block_2_1/layer_normalization_4_1/moments/SquaredDifference" type="Subtract" version="opset1">
			<data auto_broadcast="numpy" />
			<input>
				<port id="0" precision="FP32">
					<dim>1</dim>
					<dim>50</dim>
					<dim>64</dim>
				</port>
				<port id="1" precision="FP32">
					<dim>1</dim>
					<dim>50</dim>
					<dim>1</dim>
				</port>
			</input>
			<output>
				<port id="2" precision="FP32" names="TCN_OAK_WRAPPED_1/temporal_block_2_1/layer_normalization_4_1/moments/SquaredDifference:0">
					<dim>1</dim>
					<dim>50</dim>
					<dim>64</dim>
				</port>
			</output>
		</layer>
		<layer id="179" name="TCN_OAK_WRAPPED_1/temporal_block_2_1/layer_normalization_4_1/moments/SquaredDifference__56" type="Multiply" version="opset1">
			<data auto_broadcast="numpy" />
			<input>
				<port id="0" precision="FP32">
					<dim>1</dim>
					<dim>50</dim>
					<dim>64</dim>
				</port>
				<port id="1" precision="FP32">
					<dim>1</dim>
					<dim>50</dim>
					<dim>64</dim>
				</port>
			</input>
			<output>
				<port id="2" precision="FP32" names="TCN_OAK_WRAPPED_1/temporal_block_2_1/layer_normalization_4_1/moments/SquaredDifference__56:0">
					<dim>1</dim>
					<dim>50</dim>
					<dim>64</dim>
				</port>
			</output>
		</layer>
		<layer id="180" name="Range_240" type="Const" version="opset1">
			<data element_type="i64" shape="1" offset="38130" size="8" />
			<output>
				<port id="0" precision="I64">
					<dim>1</dim>
				</port>
			</output>
		</layer>
		<layer id="181" name="TCN_OAK_WRAPPED_1/temporal_block_2_1/layer_normalization_4_1/moments/variance" type="ReduceMean" version="opset1">
			<data keep_dims="true" />
			<input>
				<port id="0" precision="FP32">
					<dim>1</dim>
					<dim>50</dim>
					<dim>64</dim>
				</port>
				<port id="1" precision="I64">
					<dim>1</dim>
				</port>
			</input>
			<output>
				<port id="2" precision="FP32" names="TCN_OAK_WRAPPED_1/temporal_block_2_1/layer_normalization_4_1/moments/variance:0">
					<dim>1</dim>
					<dim>50</dim>
					<dim>1</dim>
				</port>
			</output>
		</layer>
		<layer id="182" name="Constant_2239_compressed" type="Const" version="opset1">
			<data element_type="f16" shape="1, 1, 1" offset="38164" size="2" />
			<output>
				<port id="0" precision="FP16">
					<dim>1</dim>
					<dim>1</dim>
					<dim>1</dim>
				</port>
			</output>
		</layer>
		<layer id="183" name="Constant_2239" type="Convert" version="opset1">
			<data destination_type="f32" />
			<rt_info>
				<attribute name="decompression" version="0" />
			</rt_info>
			<input>
				<port id="0" precision="FP16">
					<dim>1</dim>
					<dim>1</dim>
					<dim>1</dim>
				</port>
			</input>
			<output>
				<port id="1" precision="FP32">
					<dim>1</dim>
					<dim>1</dim>
					<dim>1</dim>
				</port>
			</output>
		</layer>
		<layer id="184" name="TCN_OAK_WRAPPED_1/temporal_block_2_1/layer_normalization_4_1/add" type="Add" version="opset1">
			<data auto_broadcast="numpy" />
			<input>
				<port id="0" precision="FP32">
					<dim>1</dim>
					<dim>50</dim>
					<dim>1</dim>
				</port>
				<port id="1" precision="FP32">
					<dim>1</dim>
					<dim>1</dim>
					<dim>1</dim>
				</port>
			</input>
			<output>
				<port id="2" precision="FP32" names="TCN_OAK_WRAPPED_1/temporal_block_2_1/layer_normalization_4_1/add:0">
					<dim>1</dim>
					<dim>50</dim>
					<dim>1</dim>
				</port>
			</output>
		</layer>
		<layer id="185" name="TCN_OAK_WRAPPED_1/temporal_block_2_1/layer_normalization_4_1/Rsqrt" type="Sqrt" version="opset1">
			<input>
				<port id="0" precision="FP32">
					<dim>1</dim>
					<dim>50</dim>
					<dim>1</dim>
				</port>
			</input>
			<output>
				<port id="1" precision="FP32" names="TCN_OAK_WRAPPED_1/temporal_block_2_1/layer_normalization_4_1/Rsqrt:0">
					<dim>1</dim>
					<dim>50</dim>
					<dim>1</dim>
				</port>
			</output>
		</layer>
		<layer id="186" name="TCN_OAK_WRAPPED_1/temporal_block_2_1/layer_normalization_4_1/Rsqrt__57" type="Divide" version="opset1">
			<data auto_broadcast="numpy" m_pythondiv="true" />
			<input>
				<port id="0" precision="FP32">
					<dim>1</dim>
					<dim>1</dim>
					<dim>1</dim>
				</port>
				<port id="1" precision="FP32">
					<dim>1</dim>
					<dim>50</dim>
					<dim>1</dim>
				</port>
			</input>
			<output>
				<port id="2" precision="FP32" names="TCN_OAK_WRAPPED_1/temporal_block_2_1/layer_normalization_4_1/Rsqrt__57:0">
					<dim>1</dim>
					<dim>50</dim>
					<dim>1</dim>
				</port>
			</output>
		</layer>
		<layer id="187" name="TCN_OAK_WRAPPED_1/temporal_block_2_1/layer_normalization_4_1/mul" type="Multiply" version="opset1">
			<data auto_broadcast="numpy" />
			<input>
				<port id="0" precision="FP32">
					<dim>1</dim>
					<dim>50</dim>
					<dim>1</dim>
				</port>
				<port id="1" precision="FP32">
					<dim>1</dim>
					<dim>1</dim>
					<dim>64</dim>
				</port>
			</input>
			<output>
				<port id="2" precision="FP32" names="TCN_OAK_WRAPPED_1/temporal_block_2_1/layer_normalization_4_1/mul:0">
					<dim>1</dim>
					<dim>50</dim>
					<dim>64</dim>
				</port>
			</output>
		</layer>
		<layer id="188" name="TCN_OAK_WRAPPED_1/temporal_block_2_1/layer_normalization_4_1/mul_2" type="Multiply" version="opset1">
			<data auto_broadcast="numpy" />
			<input>
				<port id="0" precision="FP32">
					<dim>1</dim>
					<dim>50</dim>
					<dim>64</dim>
				</port>
				<port id="1" precision="FP32">
					<dim>1</dim>
					<dim>50</dim>
					<dim>64</dim>
				</port>
			</input>
			<output>
				<port id="2" precision="FP32" names="TCN_OAK_WRAPPED_1/temporal_block_2_1/layer_normalization_4_1/mul_2:0">
					<dim>1</dim>
					<dim>50</dim>
					<dim>64</dim>
				</port>
			</output>
		</layer>
		<layer id="189" name="Constant_2241_compressed" type="Const" version="opset1">
			<data element_type="f16" shape="1, 1, 1" offset="38294" size="2" />
			<output>
				<port id="0" precision="FP16">
					<dim>1</dim>
					<dim>1</dim>
					<dim>1</dim>
				</port>
			</output>
		</layer>
		<layer id="190" name="Constant_2241" type="Convert" version="opset1">
			<data destination_type="f32" />
			<rt_info>
				<attribute name="decompression" version="0" />
			</rt_info>
			<input>
				<port id="0" precision="FP16">
					<dim>1</dim>
					<dim>1</dim>
					<dim>1</dim>
				</port>
			</input>
			<output>
				<port id="1" precision="FP32">
					<dim>1</dim>
					<dim>1</dim>
					<dim>1</dim>
				</port>
			</output>
		</layer>
		<layer id="191" name="TCN_OAK_WRAPPED_1/temporal_block_2_1/layer_normalization_4_1/Neg" type="Multiply" version="opset1">
			<data auto_broadcast="numpy" />
			<input>
				<port id="0" precision="FP32">
					<dim>1</dim>
					<dim>50</dim>
					<dim>1</dim>
				</port>
				<port id="1" precision="FP32">
					<dim>1</dim>
					<dim>1</dim>
					<dim>1</dim>
				</port>
			</input>
			<output>
				<port id="2" precision="FP32" names="TCN_OAK_WRAPPED_1/temporal_block_2_1/layer_normalization_4_1/Neg:0">
					<dim>1</dim>
					<dim>50</dim>
					<dim>1</dim>
				</port>
			</output>
		</layer>
		<layer id="192" name="TCN_OAK_WRAPPED_1/temporal_block_2_1/layer_normalization_4_1/mul_1" type="Multiply" version="opset1">
			<data auto_broadcast="numpy" />
			<input>
				<port id="0" precision="FP32">
					<dim>1</dim>
					<dim>50</dim>
					<dim>1</dim>
				</port>
				<port id="1" precision="FP32">
					<dim>1</dim>
					<dim>50</dim>
					<dim>64</dim>
				</port>
			</input>
			<output>
				<port id="2" precision="FP32" names="TCN_OAK_WRAPPED_1/temporal_block_2_1/layer_normalization_4_1/mul_1:0">
					<dim>1</dim>
					<dim>50</dim>
					<dim>64</dim>
				</port>
			</output>
		</layer>
		<layer id="193" name="TCN_OAK_WRAPPED_1/temporal_block_2_1/layer_normalization_4_1/add_2" type="Add" version="opset1">
			<data auto_broadcast="numpy" />
			<input>
				<port id="0" precision="FP32">
					<dim>1</dim>
					<dim>50</dim>
					<dim>64</dim>
				</port>
				<port id="1" precision="FP32">
					<dim>1</dim>
					<dim>50</dim>
					<dim>64</dim>
				</port>
			</input>
			<output>
				<port id="2" precision="FP32" names="TCN_OAK_WRAPPED_1/temporal_block_2_1/layer_normalization_4_1/add_2:0">
					<dim>1</dim>
					<dim>50</dim>
					<dim>64</dim>
				</port>
			</output>
		</layer>
		<layer id="194" name="TCN_OAK_WRAPPED_1/temporal_block_2_1/activation_4_1/Relu" type="ReLU" version="opset1">
			<input>
				<port id="0" precision="FP32">
					<dim>1</dim>
					<dim>50</dim>
					<dim>64</dim>
				</port>
			</input>
			<output>
				<port id="1" precision="FP32" names="TCN_OAK_WRAPPED_1/temporal_block_2_1/activation_4_1/Relu:0">
					<dim>1</dim>
					<dim>50</dim>
					<dim>64</dim>
				</port>
			</output>
		</layer>
		<layer id="195" name="Constant_254" type="Const" version="opset1">
			<data element_type="i64" shape="3" offset="211376" size="24" />
			<rt_info>
				<attribute name="precise" version="0" />
			</rt_info>
			<output>
				<port id="0" precision="I64">
					<dim>3</dim>
				</port>
			</output>
		</layer>
		<layer id="196" name="Constant_255" type="Const" version="opset1">
			<data element_type="i64" shape="3" offset="48" size="24" />
			<rt_info>
				<attribute name="precise" version="0" />
			</rt_info>
			<output>
				<port id="0" precision="I64">
					<dim>3</dim>
				</port>
			</output>
		</layer>
		<layer id="197" name="Constant_253_compressed" type="Const" version="opset1">
			<data element_type="f16" shape="" offset="72" size="2" />
			<output>
				<port id="0" precision="FP16" />
			</output>
		</layer>
		<layer id="198" name="Constant_253" type="Convert" version="opset1">
			<data destination_type="f32" />
			<rt_info>
				<attribute name="decompression" version="0" />
			</rt_info>
			<input>
				<port id="0" precision="FP16" />
			</input>
			<output>
				<port id="1" precision="FP32" />
			</output>
		</layer>
		<layer id="199" name="TCN_OAK_WRAPPED_1/temporal_block_2_1/conv1d_6_1/Pad" type="Pad" version="opset12">
			<data pad_mode="constant" />
			<input>
				<port id="0" precision="FP32">
					<dim>1</dim>
					<dim>50</dim>
					<dim>64</dim>
				</port>
				<port id="1" precision="I64">
					<dim>3</dim>
				</port>
				<port id="2" precision="I64">
					<dim>3</dim>
				</port>
				<port id="3" precision="FP32" />
			</input>
			<output>
				<port id="4" precision="FP32" names="TCN_OAK_WRAPPED_1/temporal_block_2_1/conv1d_6_1/Pad:0">
					<dim>1</dim>
					<dim>58</dim>
					<dim>64</dim>
				</port>
			</output>
		</layer>
		<layer id="200" name="TCN_OAK_WRAPPED_1/temporal_block_2_1/conv1d_6_1/convolution/ExpandDims" type="Unsqueeze" version="opset1">
			<input>
				<port id="0" precision="FP32">
					<dim>1</dim>
					<dim>58</dim>
					<dim>64</dim>
				</port>
				<port id="1" precision="I64">
					<dim>1</dim>
				</port>
			</input>
			<output>
				<port id="2" precision="FP32" names="TCN_OAK_WRAPPED_1/temporal_block_2_1/conv1d_6_1/convolution/ExpandDims:0">
					<dim>1</dim>
					<dim>1</dim>
					<dim>58</dim>
					<dim>64</dim>
				</port>
			</output>
		</layer>
		<layer id="201" name="Constant_258" type="Const" version="opset1">
			<data element_type="i64" shape="4" offset="82" size="32" />
			<output>
				<port id="0" precision="I64">
					<dim>4</dim>
				</port>
			</output>
		</layer>
		<layer id="202" name="TCN_OAK_WRAPPED_1/temporal_block_2_1/conv1d_6_1/convolution__62" type="Transpose" version="opset1">
			<input>
				<port id="0" precision="FP32">
					<dim>1</dim>
					<dim>1</dim>
					<dim>58</dim>
					<dim>64</dim>
				</port>
				<port id="1" precision="I64">
					<dim>4</dim>
				</port>
			</input>
			<output>
				<port id="2" precision="FP32" names="TCN_OAK_WRAPPED_1/temporal_block_2_1/conv1d_6_1/convolution__62:0">
					<dim>1</dim>
					<dim>64</dim>
					<dim>1</dim>
					<dim>58</dim>
				</port>
			</output>
		</layer>
		<layer id="203" name="TCN_OAK_WRAPPED_1/temporal_block_2_1/conv1d_6_1/convolution/ExpandDims_1:0_compressed" type="Const" version="opset1">
			<data element_type="f16" shape="128, 64, 1, 3" offset="260552" size="49152" />
			<output>
				<port id="0" precision="FP16" names="TCN_OAK_WRAPPED_1/temporal_block_2_1/conv1d_6_1/convolution/ExpandDims_1:0">
					<dim>128</dim>
					<dim>64</dim>
					<dim>1</dim>
					<dim>3</dim>
				</port>
			</output>
		</layer>
		<layer id="204" name="TCN_OAK_WRAPPED_1/temporal_block_2_1/conv1d_6_1/convolution/ExpandDims_1:0" type="Convert" version="opset1">
			<data destination_type="f32" />
			<rt_info>
				<attribute name="decompression" version="0" />
			</rt_info>
			<input>
				<port id="0" precision="FP16">
					<dim>128</dim>
					<dim>64</dim>
					<dim>1</dim>
					<dim>3</dim>
				</port>
			</input>
			<output>
				<port id="1" precision="FP32">
					<dim>128</dim>
					<dim>64</dim>
					<dim>1</dim>
					<dim>3</dim>
				</port>
			</output>
		</layer>
		<layer id="205" name="TCN_OAK_WRAPPED_1/temporal_block_2_1/conv1d_6_1/convolution" type="Convolution" version="opset1">
			<data strides="1, 1" dilations="1, 4" pads_begin="0, 0" pads_end="0, 0" auto_pad="explicit" />
			<input>
				<port id="0" precision="FP32">
					<dim>1</dim>
					<dim>64</dim>
					<dim>1</dim>
					<dim>58</dim>
				</port>
				<port id="1" precision="FP32">
					<dim>128</dim>
					<dim>64</dim>
					<dim>1</dim>
					<dim>3</dim>
				</port>
			</input>
			<output>
				<port id="2" precision="FP32" names="TCN_OAK_WRAPPED_1/temporal_block_2_1/conv1d_6_1/convolution:0">
					<dim>1</dim>
					<dim>128</dim>
					<dim>1</dim>
					<dim>50</dim>
				</port>
			</output>
		</layer>
		<layer id="206" name="TCN_OAK_WRAPPED_1/temporal_block_2_1/conv1d_6_1/convolution/Squeeze" type="Squeeze" version="opset1">
			<input>
				<port id="0" precision="FP32">
					<dim>1</dim>
					<dim>128</dim>
					<dim>1</dim>
					<dim>50</dim>
				</port>
				<port id="1" precision="I64">
					<dim>1</dim>
				</port>
			</input>
			<output>
				<port id="2" precision="FP32" names="TCN_OAK_WRAPPED_1/temporal_block_2_1/conv1d_6_1/convolution/Squeeze:0">
					<dim>1</dim>
					<dim>128</dim>
					<dim>50</dim>
				</port>
			</output>
		</layer>
		<layer id="207" name="Constant_263" type="Const" version="opset1">
			<data element_type="i64" shape="3" offset="38138" size="24" />
			<output>
				<port id="0" precision="I64">
					<dim>3</dim>
				</port>
			</output>
		</layer>
		<layer id="208" name="TCN_OAK_WRAPPED_1/temporal_block_2_1/conv1d_6_1/convolution__63" type="Transpose" version="opset1">
			<input>
				<port id="0" precision="FP32">
					<dim>1</dim>
					<dim>128</dim>
					<dim>50</dim>
				</port>
				<port id="1" precision="I64">
					<dim>3</dim>
				</port>
			</input>
			<output>
				<port id="2" precision="FP32" names="TCN_OAK_WRAPPED_1/temporal_block_2_1/conv1d_6_1/convolution__63:0">
					<dim>1</dim>
					<dim>50</dim>
					<dim>128</dim>
				</port>
			</output>
		</layer>
		<layer id="209" name="Constant_2243_compressed" type="Const" version="opset1">
			<data element_type="f16" shape="1, 1, 1" offset="38162" size="2" />
			<output>
				<port id="0" precision="FP16">
					<dim>1</dim>
					<dim>1</dim>
					<dim>1</dim>
				</port>
			</output>
		</layer>
		<layer id="210" name="Constant_2243" type="Convert" version="opset1">
			<data destination_type="f32" />
			<rt_info>
				<attribute name="decompression" version="0" />
			</rt_info>
			<input>
				<port id="0" precision="FP16">
					<dim>1</dim>
					<dim>1</dim>
					<dim>1</dim>
				</port>
			</input>
			<output>
				<port id="1" precision="FP32">
					<dim>1</dim>
					<dim>1</dim>
					<dim>1</dim>
				</port>
			</output>
		</layer>
		<layer id="211" name="Range_271" type="Const" version="opset1">
			<data element_type="i64" shape="1" offset="38130" size="8" />
			<output>
				<port id="0" precision="I64">
					<dim>1</dim>
				</port>
			</output>
		</layer>
		<layer id="212" name="TCN_OAK_WRAPPED_1/temporal_block_2_1/layer_normalization_5_1/moments/mean" type="ReduceMean" version="opset1">
			<data keep_dims="true" />
			<input>
				<port id="0" precision="FP32">
					<dim>1</dim>
					<dim>50</dim>
					<dim>128</dim>
				</port>
				<port id="1" precision="I64">
					<dim>1</dim>
				</port>
			</input>
			<output>
				<port id="2" precision="FP32" names="TCN_OAK_WRAPPED_1/temporal_block_2_1/layer_normalization_5_1/moments/mean:0">
					<dim>1</dim>
					<dim>50</dim>
					<dim>1</dim>
				</port>
			</output>
		</layer>
		<layer id="213" name="TCN_OAK_WRAPPED_1/temporal_block_2_1/layer_normalization_5_1/moments/SquaredDifference" type="Subtract" version="opset1">
			<data auto_broadcast="numpy" />
			<input>
				<port id="0" precision="FP32">
					<dim>1</dim>
					<dim>50</dim>
					<dim>128</dim>
				</port>
				<port id="1" precision="FP32">
					<dim>1</dim>
					<dim>50</dim>
					<dim>1</dim>
				</port>
			</input>
			<output>
				<port id="2" precision="FP32" names="TCN_OAK_WRAPPED_1/temporal_block_2_1/layer_normalization_5_1/moments/SquaredDifference:0">
					<dim>1</dim>
					<dim>50</dim>
					<dim>128</dim>
				</port>
			</output>
		</layer>
		<layer id="214" name="TCN_OAK_WRAPPED_1/temporal_block_2_1/layer_normalization_5_1/moments/SquaredDifference__65" type="Multiply" version="opset1">
			<data auto_broadcast="numpy" />
			<input>
				<port id="0" precision="FP32">
					<dim>1</dim>
					<dim>50</dim>
					<dim>128</dim>
				</port>
				<port id="1" precision="FP32">
					<dim>1</dim>
					<dim>50</dim>
					<dim>128</dim>
				</port>
			</input>
			<output>
				<port id="2" precision="FP32" names="TCN_OAK_WRAPPED_1/temporal_block_2_1/layer_normalization_5_1/moments/SquaredDifference__65:0">
					<dim>1</dim>
					<dim>50</dim>
					<dim>128</dim>
				</port>
			</output>
		</layer>
		<layer id="215" name="Range_284" type="Const" version="opset1">
			<data element_type="i64" shape="1" offset="38130" size="8" />
			<output>
				<port id="0" precision="I64">
					<dim>1</dim>
				</port>
			</output>
		</layer>
		<layer id="216" name="TCN_OAK_WRAPPED_1/temporal_block_2_1/layer_normalization_5_1/moments/variance" type="ReduceMean" version="opset1">
			<data keep_dims="true" />
			<input>
				<port id="0" precision="FP32">
					<dim>1</dim>
					<dim>50</dim>
					<dim>128</dim>
				</port>
				<port id="1" precision="I64">
					<dim>1</dim>
				</port>
			</input>
			<output>
				<port id="2" precision="FP32" names="TCN_OAK_WRAPPED_1/temporal_block_2_1/layer_normalization_5_1/moments/variance:0">
					<dim>1</dim>
					<dim>50</dim>
					<dim>1</dim>
				</port>
			</output>
		</layer>
		<layer id="217" name="Constant_2242_compressed" type="Const" version="opset1">
			<data element_type="f16" shape="1, 1, 1" offset="38164" size="2" />
			<output>
				<port id="0" precision="FP16">
					<dim>1</dim>
					<dim>1</dim>
					<dim>1</dim>
				</port>
			</output>
		</layer>
		<layer id="218" name="Constant_2242" type="Convert" version="opset1">
			<data destination_type="f32" />
			<rt_info>
				<attribute name="decompression" version="0" />
			</rt_info>
			<input>
				<port id="0" precision="FP16">
					<dim>1</dim>
					<dim>1</dim>
					<dim>1</dim>
				</port>
			</input>
			<output>
				<port id="1" precision="FP32">
					<dim>1</dim>
					<dim>1</dim>
					<dim>1</dim>
				</port>
			</output>
		</layer>
		<layer id="219" name="TCN_OAK_WRAPPED_1/temporal_block_2_1/layer_normalization_5_1/add" type="Add" version="opset1">
			<data auto_broadcast="numpy" />
			<input>
				<port id="0" precision="FP32">
					<dim>1</dim>
					<dim>50</dim>
					<dim>1</dim>
				</port>
				<port id="1" precision="FP32">
					<dim>1</dim>
					<dim>1</dim>
					<dim>1</dim>
				</port>
			</input>
			<output>
				<port id="2" precision="FP32" names="TCN_OAK_WRAPPED_1/temporal_block_2_1/layer_normalization_5_1/add:0">
					<dim>1</dim>
					<dim>50</dim>
					<dim>1</dim>
				</port>
			</output>
		</layer>
		<layer id="220" name="TCN_OAK_WRAPPED_1/temporal_block_2_1/layer_normalization_5_1/Rsqrt" type="Sqrt" version="opset1">
			<input>
				<port id="0" precision="FP32">
					<dim>1</dim>
					<dim>50</dim>
					<dim>1</dim>
				</port>
			</input>
			<output>
				<port id="1" precision="FP32" names="TCN_OAK_WRAPPED_1/temporal_block_2_1/layer_normalization_5_1/Rsqrt:0">
					<dim>1</dim>
					<dim>50</dim>
					<dim>1</dim>
				</port>
			</output>
		</layer>
		<layer id="221" name="TCN_OAK_WRAPPED_1/temporal_block_2_1/layer_normalization_5_1/Rsqrt__66" type="Divide" version="opset1">
			<data auto_broadcast="numpy" m_pythondiv="true" />
			<input>
				<port id="0" precision="FP32">
					<dim>1</dim>
					<dim>1</dim>
					<dim>1</dim>
				</port>
				<port id="1" precision="FP32">
					<dim>1</dim>
					<dim>50</dim>
					<dim>1</dim>
				</port>
			</input>
			<output>
				<port id="2" precision="FP32" names="TCN_OAK_WRAPPED_1/temporal_block_2_1/layer_normalization_5_1/Rsqrt__66:0">
					<dim>1</dim>
					<dim>50</dim>
					<dim>1</dim>
				</port>
			</output>
		</layer>
		<layer id="222" name="TCN_OAK_WRAPPED_1/temporal_block_2_1/layer_normalization_5_1/mul" type="Multiply" version="opset1">
			<data auto_broadcast="numpy" />
			<input>
				<port id="0" precision="FP32">
					<dim>1</dim>
					<dim>50</dim>
					<dim>1</dim>
				</port>
				<port id="1" precision="FP32">
					<dim>1</dim>
					<dim>1</dim>
					<dim>128</dim>
				</port>
			</input>
			<output>
				<port id="2" precision="FP32" names="TCN_OAK_WRAPPED_1/temporal_block_2_1/layer_normalization_5_1/mul:0">
					<dim>1</dim>
					<dim>50</dim>
					<dim>128</dim>
				</port>
			</output>
		</layer>
		<layer id="223" name="TCN_OAK_WRAPPED_1/temporal_block_2_1/layer_normalization_5_1/mul_2" type="Multiply" version="opset1">
			<data auto_broadcast="numpy" />
			<input>
				<port id="0" precision="FP32">
					<dim>1</dim>
					<dim>50</dim>
					<dim>128</dim>
				</port>
				<port id="1" precision="FP32">
					<dim>1</dim>
					<dim>50</dim>
					<dim>128</dim>
				</port>
			</input>
			<output>
				<port id="2" precision="FP32" names="TCN_OAK_WRAPPED_1/temporal_block_2_1/layer_normalization_5_1/mul_2:0">
					<dim>1</dim>
					<dim>50</dim>
					<dim>128</dim>
				</port>
			</output>
		</layer>
		<layer id="224" name="Constant_2244_compressed" type="Const" version="opset1">
			<data element_type="f16" shape="1, 1, 1" offset="38294" size="2" />
			<output>
				<port id="0" precision="FP16">
					<dim>1</dim>
					<dim>1</dim>
					<dim>1</dim>
				</port>
			</output>
		</layer>
		<layer id="225" name="Constant_2244" type="Convert" version="opset1">
			<data destination_type="f32" />
			<rt_info>
				<attribute name="decompression" version="0" />
			</rt_info>
			<input>
				<port id="0" precision="FP16">
					<dim>1</dim>
					<dim>1</dim>
					<dim>1</dim>
				</port>
			</input>
			<output>
				<port id="1" precision="FP32">
					<dim>1</dim>
					<dim>1</dim>
					<dim>1</dim>
				</port>
			</output>
		</layer>
		<layer id="226" name="TCN_OAK_WRAPPED_1/temporal_block_2_1/layer_normalization_5_1/Neg" type="Multiply" version="opset1">
			<data auto_broadcast="numpy" />
			<input>
				<port id="0" precision="FP32">
					<dim>1</dim>
					<dim>50</dim>
					<dim>1</dim>
				</port>
				<port id="1" precision="FP32">
					<dim>1</dim>
					<dim>1</dim>
					<dim>1</dim>
				</port>
			</input>
			<output>
				<port id="2" precision="FP32" names="TCN_OAK_WRAPPED_1/temporal_block_2_1/layer_normalization_5_1/Neg:0">
					<dim>1</dim>
					<dim>50</dim>
					<dim>1</dim>
				</port>
			</output>
		</layer>
		<layer id="227" name="TCN_OAK_WRAPPED_1/temporal_block_2_1/layer_normalization_5_1/mul_1" type="Multiply" version="opset1">
			<data auto_broadcast="numpy" />
			<input>
				<port id="0" precision="FP32">
					<dim>1</dim>
					<dim>50</dim>
					<dim>1</dim>
				</port>
				<port id="1" precision="FP32">
					<dim>1</dim>
					<dim>50</dim>
					<dim>128</dim>
				</port>
			</input>
			<output>
				<port id="2" precision="FP32" names="TCN_OAK_WRAPPED_1/temporal_block_2_1/layer_normalization_5_1/mul_1:0">
					<dim>1</dim>
					<dim>50</dim>
					<dim>128</dim>
				</port>
			</output>
		</layer>
		<layer id="228" name="TCN_OAK_WRAPPED_1/temporal_block_2_1/layer_normalization_5_1/add_2" type="Add" version="opset1">
			<data auto_broadcast="numpy" />
			<input>
				<port id="0" precision="FP32">
					<dim>1</dim>
					<dim>50</dim>
					<dim>128</dim>
				</port>
				<port id="1" precision="FP32">
					<dim>1</dim>
					<dim>50</dim>
					<dim>128</dim>
				</port>
			</input>
			<output>
				<port id="2" precision="FP32" names="TCN_OAK_WRAPPED_1/temporal_block_2_1/layer_normalization_5_1/add_2:0">
					<dim>1</dim>
					<dim>50</dim>
					<dim>128</dim>
				</port>
			</output>
		</layer>
		<layer id="229" name="TCN_OAK_WRAPPED_1/temporal_block_2_1/activation_5_1/Relu" type="ReLU" version="opset1">
			<input>
				<port id="0" precision="FP32">
					<dim>1</dim>
					<dim>50</dim>
					<dim>128</dim>
				</port>
			</input>
			<output>
				<port id="1" precision="FP32" names="TCN_OAK_WRAPPED_1/temporal_block_2_1/activation_5_1/Relu:0">
					<dim>1</dim>
					<dim>50</dim>
					<dim>128</dim>
				</port>
			</output>
		</layer>
		<layer id="230" name="TCN_OAK_WRAPPED_1/temporal_block_2_1/add_2_1/Add" type="Add" version="opset1">
			<data auto_broadcast="numpy" />
			<input>
				<port id="0" precision="FP32">
					<dim>1</dim>
					<dim>50</dim>
					<dim>128</dim>
				</port>
				<port id="1" precision="FP32">
					<dim>1</dim>
					<dim>50</dim>
					<dim>128</dim>
				</port>
			</input>
			<output>
				<port id="2" precision="FP32" names="TCN_OAK_WRAPPED_1/temporal_block_2_1/add_2_1/Add:0">
					<dim>1</dim>
					<dim>50</dim>
					<dim>128</dim>
				</port>
			</output>
		</layer>
		<layer id="231" name="Constant_299" type="Const" version="opset1">
			<data element_type="i64" shape="3" offset="309704" size="24" />
			<rt_info>
				<attribute name="precise" version="0" />
			</rt_info>
			<output>
				<port id="0" precision="I64">
					<dim>3</dim>
				</port>
			</output>
		</layer>
		<layer id="232" name="Constant_300" type="Const" version="opset1">
			<data element_type="i64" shape="3" offset="48" size="24" />
			<rt_info>
				<attribute name="precise" version="0" />
			</rt_info>
			<output>
				<port id="0" precision="I64">
					<dim>3</dim>
				</port>
			</output>
		</layer>
		<layer id="233" name="Constant_298_compressed" type="Const" version="opset1">
			<data element_type="f16" shape="" offset="72" size="2" />
			<output>
				<port id="0" precision="FP16" />
			</output>
		</layer>
		<layer id="234" name="Constant_298" type="Convert" version="opset1">
			<data destination_type="f32" />
			<rt_info>
				<attribute name="decompression" version="0" />
			</rt_info>
			<input>
				<port id="0" precision="FP16" />
			</input>
			<output>
				<port id="1" precision="FP32" />
			</output>
		</layer>
		<layer id="235" name="TCN_OAK_WRAPPED_1/temporal_block_3_1/conv1d_7_1/Pad" type="Pad" version="opset12">
			<data pad_mode="constant" />
			<input>
				<port id="0" precision="FP32">
					<dim>1</dim>
					<dim>50</dim>
					<dim>128</dim>
				</port>
				<port id="1" precision="I64">
					<dim>3</dim>
				</port>
				<port id="2" precision="I64">
					<dim>3</dim>
				</port>
				<port id="3" precision="FP32" />
			</input>
			<output>
				<port id="4" precision="FP32" names="TCN_OAK_WRAPPED_1/temporal_block_3_1/conv1d_7_1/Pad:0">
					<dim>1</dim>
					<dim>66</dim>
					<dim>128</dim>
				</port>
			</output>
		</layer>
		<layer id="236" name="TCN_OAK_WRAPPED_1/temporal_block_3_1/conv1d_7_1/convolution/ExpandDims" type="Unsqueeze" version="opset1">
			<input>
				<port id="0" precision="FP32">
					<dim>1</dim>
					<dim>66</dim>
					<dim>128</dim>
				</port>
				<port id="1" precision="I64">
					<dim>1</dim>
				</port>
			</input>
			<output>
				<port id="2" precision="FP32" names="TCN_OAK_WRAPPED_1/temporal_block_3_1/conv1d_7_1/convolution/ExpandDims:0">
					<dim>1</dim>
					<dim>1</dim>
					<dim>66</dim>
					<dim>128</dim>
				</port>
			</output>
		</layer>
		<layer id="237" name="Constant_303" type="Const" version="opset1">
			<data element_type="i64" shape="4" offset="82" size="32" />
			<output>
				<port id="0" precision="I64">
					<dim>4</dim>
				</port>
			</output>
		</layer>
		<layer id="238" name="TCN_OAK_WRAPPED_1/temporal_block_3_1/conv1d_7_1/convolution__71" type="Transpose" version="opset1">
			<input>
				<port id="0" precision="FP32">
					<dim>1</dim>
					<dim>1</dim>
					<dim>66</dim>
					<dim>128</dim>
				</port>
				<port id="1" precision="I64">
					<dim>4</dim>
				</port>
			</input>
			<output>
				<port id="2" precision="FP32" names="TCN_OAK_WRAPPED_1/temporal_block_3_1/conv1d_7_1/convolution__71:0">
					<dim>1</dim>
					<dim>128</dim>
					<dim>1</dim>
					<dim>66</dim>
				</port>
			</output>
		</layer>
		<layer id="239" name="TCN_OAK_WRAPPED_1/temporal_block_3_1/conv1d_7_1/convolution/ExpandDims_1:0_compressed" type="Const" version="opset1">
			<data element_type="f16" shape="64, 128, 1, 3" offset="309728" size="49152" />
			<output>
				<port id="0" precision="FP16" names="TCN_OAK_WRAPPED_1/temporal_block_3_1/conv1d_7_1/convolution/ExpandDims_1:0">
					<dim>64</dim>
					<dim>128</dim>
					<dim>1</dim>
					<dim>3</dim>
				</port>
			</output>
		</layer>
		<layer id="240" name="TCN_OAK_WRAPPED_1/temporal_block_3_1/conv1d_7_1/convolution/ExpandDims_1:0" type="Convert" version="opset1">
			<data destination_type="f32" />
			<rt_info>
				<attribute name="decompression" version="0" />
			</rt_info>
			<input>
				<port id="0" precision="FP16">
					<dim>64</dim>
					<dim>128</dim>
					<dim>1</dim>
					<dim>3</dim>
				</port>
			</input>
			<output>
				<port id="1" precision="FP32">
					<dim>64</dim>
					<dim>128</dim>
					<dim>1</dim>
					<dim>3</dim>
				</port>
			</output>
		</layer>
		<layer id="241" name="TCN_OAK_WRAPPED_1/temporal_block_3_1/conv1d_7_1/convolution" type="Convolution" version="opset1">
			<data strides="1, 1" dilations="1, 8" pads_begin="0, 0" pads_end="0, 0" auto_pad="explicit" />
			<input>
				<port id="0" precision="FP32">
					<dim>1</dim>
					<dim>128</dim>
					<dim>1</dim>
					<dim>66</dim>
				</port>
				<port id="1" precision="FP32">
					<dim>64</dim>
					<dim>128</dim>
					<dim>1</dim>
					<dim>3</dim>
				</port>
			</input>
			<output>
				<port id="2" precision="FP32" names="TCN_OAK_WRAPPED_1/temporal_block_3_1/conv1d_7_1/convolution:0">
					<dim>1</dim>
					<dim>64</dim>
					<dim>1</dim>
					<dim>50</dim>
				</port>
			</output>
		</layer>
		<layer id="242" name="TCN_OAK_WRAPPED_1/temporal_block_3_1/conv1d_7_1/convolution/Squeeze" type="Squeeze" version="opset1">
			<input>
				<port id="0" precision="FP32">
					<dim>1</dim>
					<dim>64</dim>
					<dim>1</dim>
					<dim>50</dim>
				</port>
				<port id="1" precision="I64">
					<dim>1</dim>
				</port>
			</input>
			<output>
				<port id="2" precision="FP32" names="TCN_OAK_WRAPPED_1/temporal_block_3_1/conv1d_7_1/convolution/Squeeze:0">
					<dim>1</dim>
					<dim>64</dim>
					<dim>50</dim>
				</port>
			</output>
		</layer>
		<layer id="243" name="Constant_308" type="Const" version="opset1">
			<data element_type="i64" shape="3" offset="38138" size="24" />
			<output>
				<port id="0" precision="I64">
					<dim>3</dim>
				</port>
			</output>
		</layer>
		<layer id="244" name="TCN_OAK_WRAPPED_1/temporal_block_3_1/conv1d_7_1/convolution__72" type="Transpose" version="opset1">
			<input>
				<port id="0" precision="FP32">
					<dim>1</dim>
					<dim>64</dim>
					<dim>50</dim>
				</port>
				<port id="1" precision="I64">
					<dim>3</dim>
				</port>
			</input>
			<output>
				<port id="2" precision="FP32" names="TCN_OAK_WRAPPED_1/temporal_block_3_1/conv1d_7_1/convolution__72:0">
					<dim>1</dim>
					<dim>50</dim>
					<dim>64</dim>
				</port>
			</output>
		</layer>
		<layer id="245" name="Constant_2246_compressed" type="Const" version="opset1">
			<data element_type="f16" shape="1, 1, 1" offset="38162" size="2" />
			<output>
				<port id="0" precision="FP16">
					<dim>1</dim>
					<dim>1</dim>
					<dim>1</dim>
				</port>
			</output>
		</layer>
		<layer id="246" name="Constant_2246" type="Convert" version="opset1">
			<data destination_type="f32" />
			<rt_info>
				<attribute name="decompression" version="0" />
			</rt_info>
			<input>
				<port id="0" precision="FP16">
					<dim>1</dim>
					<dim>1</dim>
					<dim>1</dim>
				</port>
			</input>
			<output>
				<port id="1" precision="FP32">
					<dim>1</dim>
					<dim>1</dim>
					<dim>1</dim>
				</port>
			</output>
		</layer>
		<layer id="247" name="Range_316" type="Const" version="opset1">
			<data element_type="i64" shape="1" offset="38130" size="8" />
			<output>
				<port id="0" precision="I64">
					<dim>1</dim>
				</port>
			</output>
		</layer>
		<layer id="248" name="TCN_OAK_WRAPPED_1/temporal_block_3_1/layer_normalization_6_1/moments/mean" type="ReduceMean" version="opset1">
			<data keep_dims="true" />
			<input>
				<port id="0" precision="FP32">
					<dim>1</dim>
					<dim>50</dim>
					<dim>64</dim>
				</port>
				<port id="1" precision="I64">
					<dim>1</dim>
				</port>
			</input>
			<output>
				<port id="2" precision="FP32" names="TCN_OAK_WRAPPED_1/temporal_block_3_1/layer_normalization_6_1/moments/mean:0">
					<dim>1</dim>
					<dim>50</dim>
					<dim>1</dim>
				</port>
			</output>
		</layer>
		<layer id="249" name="TCN_OAK_WRAPPED_1/temporal_block_3_1/layer_normalization_6_1/moments/SquaredDifference" type="Subtract" version="opset1">
			<data auto_broadcast="numpy" />
			<input>
				<port id="0" precision="FP32">
					<dim>1</dim>
					<dim>50</dim>
					<dim>64</dim>
				</port>
				<port id="1" precision="FP32">
					<dim>1</dim>
					<dim>50</dim>
					<dim>1</dim>
				</port>
			</input>
			<output>
				<port id="2" precision="FP32" names="TCN_OAK_WRAPPED_1/temporal_block_3_1/layer_normalization_6_1/moments/SquaredDifference:0">
					<dim>1</dim>
					<dim>50</dim>
					<dim>64</dim>
				</port>
			</output>
		</layer>
		<layer id="250" name="TCN_OAK_WRAPPED_1/temporal_block_3_1/layer_normalization_6_1/moments/SquaredDifference__74" type="Multiply" version="opset1">
			<data auto_broadcast="numpy" />
			<input>
				<port id="0" precision="FP32">
					<dim>1</dim>
					<dim>50</dim>
					<dim>64</dim>
				</port>
				<port id="1" precision="FP32">
					<dim>1</dim>
					<dim>50</dim>
					<dim>64</dim>
				</port>
			</input>
			<output>
				<port id="2" precision="FP32" names="TCN_OAK_WRAPPED_1/temporal_block_3_1/layer_normalization_6_1/moments/SquaredDifference__74:0">
					<dim>1</dim>
					<dim>50</dim>
					<dim>64</dim>
				</port>
			</output>
		</layer>
		<layer id="251" name="Range_329" type="Const" version="opset1">
			<data element_type="i64" shape="1" offset="38130" size="8" />
			<output>
				<port id="0" precision="I64">
					<dim>1</dim>
				</port>
			</output>
		</layer>
		<layer id="252" name="TCN_OAK_WRAPPED_1/temporal_block_3_1/layer_normalization_6_1/moments/variance" type="ReduceMean" version="opset1">
			<data keep_dims="true" />
			<input>
				<port id="0" precision="FP32">
					<dim>1</dim>
					<dim>50</dim>
					<dim>64</dim>
				</port>
				<port id="1" precision="I64">
					<dim>1</dim>
				</port>
			</input>
			<output>
				<port id="2" precision="FP32" names="TCN_OAK_WRAPPED_1/temporal_block_3_1/layer_normalization_6_1/moments/variance:0">
					<dim>1</dim>
					<dim>50</dim>
					<dim>1</dim>
				</port>
			</output>
		</layer>
		<layer id="253" name="Constant_2245_compressed" type="Const" version="opset1">
			<data element_type="f16" shape="1, 1, 1" offset="38164" size="2" />
			<output>
				<port id="0" precision="FP16">
					<dim>1</dim>
					<dim>1</dim>
					<dim>1</dim>
				</port>
			</output>
		</layer>
		<layer id="254" name="Constant_2245" type="Convert" version="opset1">
			<data destination_type="f32" />
			<rt_info>
				<attribute name="decompression" version="0" />
			</rt_info>
			<input>
				<port id="0" precision="FP16">
					<dim>1</dim>
					<dim>1</dim>
					<dim>1</dim>
				</port>
			</input>
			<output>
				<port id="1" precision="FP32">
					<dim>1</dim>
					<dim>1</dim>
					<dim>1</dim>
				</port>
			</output>
		</layer>
		<layer id="255" name="TCN_OAK_WRAPPED_1/temporal_block_3_1/layer_normalization_6_1/add" type="Add" version="opset1">
			<data auto_broadcast="numpy" />
			<input>
				<port id="0" precision="FP32">
					<dim>1</dim>
					<dim>50</dim>
					<dim>1</dim>
				</port>
				<port id="1" precision="FP32">
					<dim>1</dim>
					<dim>1</dim>
					<dim>1</dim>
				</port>
			</input>
			<output>
				<port id="2" precision="FP32" names="TCN_OAK_WRAPPED_1/temporal_block_3_1/layer_normalization_6_1/add:0">
					<dim>1</dim>
					<dim>50</dim>
					<dim>1</dim>
				</port>
			</output>
		</layer>
		<layer id="256" name="TCN_OAK_WRAPPED_1/temporal_block_3_1/layer_normalization_6_1/Rsqrt" type="Sqrt" version="opset1">
			<input>
				<port id="0" precision="FP32">
					<dim>1</dim>
					<dim>50</dim>
					<dim>1</dim>
				</port>
			</input>
			<output>
				<port id="1" precision="FP32" names="TCN_OAK_WRAPPED_1/temporal_block_3_1/layer_normalization_6_1/Rsqrt:0">
					<dim>1</dim>
					<dim>50</dim>
					<dim>1</dim>
				</port>
			</output>
		</layer>
		<layer id="257" name="TCN_OAK_WRAPPED_1/temporal_block_3_1/layer_normalization_6_1/Rsqrt__75" type="Divide" version="opset1">
			<data auto_broadcast="numpy" m_pythondiv="true" />
			<input>
				<port id="0" precision="FP32">
					<dim>1</dim>
					<dim>1</dim>
					<dim>1</dim>
				</port>
				<port id="1" precision="FP32">
					<dim>1</dim>
					<dim>50</dim>
					<dim>1</dim>
				</port>
			</input>
			<output>
				<port id="2" precision="FP32" names="TCN_OAK_WRAPPED_1/temporal_block_3_1/layer_normalization_6_1/Rsqrt__75:0">
					<dim>1</dim>
					<dim>50</dim>
					<dim>1</dim>
				</port>
			</output>
		</layer>
		<layer id="258" name="TCN_OAK_WRAPPED_1/temporal_block_3_1/layer_normalization_6_1/mul" type="Multiply" version="opset1">
			<data auto_broadcast="numpy" />
			<input>
				<port id="0" precision="FP32">
					<dim>1</dim>
					<dim>50</dim>
					<dim>1</dim>
				</port>
				<port id="1" precision="FP32">
					<dim>1</dim>
					<dim>1</dim>
					<dim>64</dim>
				</port>
			</input>
			<output>
				<port id="2" precision="FP32" names="TCN_OAK_WRAPPED_1/temporal_block_3_1/layer_normalization_6_1/mul:0">
					<dim>1</dim>
					<dim>50</dim>
					<dim>64</dim>
				</port>
			</output>
		</layer>
		<layer id="259" name="TCN_OAK_WRAPPED_1/temporal_block_3_1/layer_normalization_6_1/mul_2" type="Multiply" version="opset1">
			<data auto_broadcast="numpy" />
			<input>
				<port id="0" precision="FP32">
					<dim>1</dim>
					<dim>50</dim>
					<dim>64</dim>
				</port>
				<port id="1" precision="FP32">
					<dim>1</dim>
					<dim>50</dim>
					<dim>64</dim>
				</port>
			</input>
			<output>
				<port id="2" precision="FP32" names="TCN_OAK_WRAPPED_1/temporal_block_3_1/layer_normalization_6_1/mul_2:0">
					<dim>1</dim>
					<dim>50</dim>
					<dim>64</dim>
				</port>
			</output>
		</layer>
		<layer id="260" name="Constant_2247_compressed" type="Const" version="opset1">
			<data element_type="f16" shape="1, 1, 1" offset="38294" size="2" />
			<output>
				<port id="0" precision="FP16">
					<dim>1</dim>
					<dim>1</dim>
					<dim>1</dim>
				</port>
			</output>
		</layer>
		<layer id="261" name="Constant_2247" type="Convert" version="opset1">
			<data destination_type="f32" />
			<rt_info>
				<attribute name="decompression" version="0" />
			</rt_info>
			<input>
				<port id="0" precision="FP16">
					<dim>1</dim>
					<dim>1</dim>
					<dim>1</dim>
				</port>
			</input>
			<output>
				<port id="1" precision="FP32">
					<dim>1</dim>
					<dim>1</dim>
					<dim>1</dim>
				</port>
			</output>
		</layer>
		<layer id="262" name="TCN_OAK_WRAPPED_1/temporal_block_3_1/layer_normalization_6_1/Neg" type="Multiply" version="opset1">
			<data auto_broadcast="numpy" />
			<input>
				<port id="0" precision="FP32">
					<dim>1</dim>
					<dim>50</dim>
					<dim>1</dim>
				</port>
				<port id="1" precision="FP32">
					<dim>1</dim>
					<dim>1</dim>
					<dim>1</dim>
				</port>
			</input>
			<output>
				<port id="2" precision="FP32" names="TCN_OAK_WRAPPED_1/temporal_block_3_1/layer_normalization_6_1/Neg:0">
					<dim>1</dim>
					<dim>50</dim>
					<dim>1</dim>
				</port>
			</output>
		</layer>
		<layer id="263" name="TCN_OAK_WRAPPED_1/temporal_block_3_1/layer_normalization_6_1/mul_1" type="Multiply" version="opset1">
			<data auto_broadcast="numpy" />
			<input>
				<port id="0" precision="FP32">
					<dim>1</dim>
					<dim>50</dim>
					<dim>1</dim>
				</port>
				<port id="1" precision="FP32">
					<dim>1</dim>
					<dim>50</dim>
					<dim>64</dim>
				</port>
			</input>
			<output>
				<port id="2" precision="FP32" names="TCN_OAK_WRAPPED_1/temporal_block_3_1/layer_normalization_6_1/mul_1:0">
					<dim>1</dim>
					<dim>50</dim>
					<dim>64</dim>
				</port>
			</output>
		</layer>
		<layer id="264" name="TCN_OAK_WRAPPED_1/temporal_block_3_1/layer_normalization_6_1/add_2" type="Add" version="opset1">
			<data auto_broadcast="numpy" />
			<input>
				<port id="0" precision="FP32">
					<dim>1</dim>
					<dim>50</dim>
					<dim>64</dim>
				</port>
				<port id="1" precision="FP32">
					<dim>1</dim>
					<dim>50</dim>
					<dim>64</dim>
				</port>
			</input>
			<output>
				<port id="2" precision="FP32" names="TCN_OAK_WRAPPED_1/temporal_block_3_1/layer_normalization_6_1/add_2:0">
					<dim>1</dim>
					<dim>50</dim>
					<dim>64</dim>
				</port>
			</output>
		</layer>
		<layer id="265" name="TCN_OAK_WRAPPED_1/temporal_block_3_1/activation_6_1/Relu" type="ReLU" version="opset1">
			<input>
				<port id="0" precision="FP32">
					<dim>1</dim>
					<dim>50</dim>
					<dim>64</dim>
				</port>
			</input>
			<output>
				<port id="1" precision="FP32" names="TCN_OAK_WRAPPED_1/temporal_block_3_1/activation_6_1/Relu:0">
					<dim>1</dim>
					<dim>50</dim>
					<dim>64</dim>
				</port>
			</output>
		</layer>
		<layer id="266" name="Constant_343" type="Const" version="opset1">
			<data element_type="i64" shape="3" offset="309704" size="24" />
			<rt_info>
				<attribute name="precise" version="0" />
			</rt_info>
			<output>
				<port id="0" precision="I64">
					<dim>3</dim>
				</port>
			</output>
		</layer>
		<layer id="267" name="Constant_344" type="Const" version="opset1">
			<data element_type="i64" shape="3" offset="48" size="24" />
			<rt_info>
				<attribute name="precise" version="0" />
			</rt_info>
			<output>
				<port id="0" precision="I64">
					<dim>3</dim>
				</port>
			</output>
		</layer>
		<layer id="268" name="Constant_342_compressed" type="Const" version="opset1">
			<data element_type="f16" shape="" offset="72" size="2" />
			<output>
				<port id="0" precision="FP16" />
			</output>
		</layer>
		<layer id="269" name="Constant_342" type="Convert" version="opset1">
			<data destination_type="f32" />
			<rt_info>
				<attribute name="decompression" version="0" />
			</rt_info>
			<input>
				<port id="0" precision="FP16" />
			</input>
			<output>
				<port id="1" precision="FP32" />
			</output>
		</layer>
		<layer id="270" name="TCN_OAK_WRAPPED_1/temporal_block_3_1/conv1d_8_1/Pad" type="Pad" version="opset12">
			<data pad_mode="constant" />
			<input>
				<port id="0" precision="FP32">
					<dim>1</dim>
					<dim>50</dim>
					<dim>64</dim>
				</port>
				<port id="1" precision="I64">
					<dim>3</dim>
				</port>
				<port id="2" precision="I64">
					<dim>3</dim>
				</port>
				<port id="3" precision="FP32" />
			</input>
			<output>
				<port id="4" precision="FP32" names="TCN_OAK_WRAPPED_1/temporal_block_3_1/conv1d_8_1/Pad:0">
					<dim>1</dim>
					<dim>66</dim>
					<dim>64</dim>
				</port>
			</output>
		</layer>
		<layer id="271" name="TCN_OAK_WRAPPED_1/temporal_block_3_1/conv1d_8_1/convolution/ExpandDims" type="Unsqueeze" version="opset1">
			<input>
				<port id="0" precision="FP32">
					<dim>1</dim>
					<dim>66</dim>
					<dim>64</dim>
				</port>
				<port id="1" precision="I64">
					<dim>1</dim>
				</port>
			</input>
			<output>
				<port id="2" precision="FP32" names="TCN_OAK_WRAPPED_1/temporal_block_3_1/conv1d_8_1/convolution/ExpandDims:0">
					<dim>1</dim>
					<dim>1</dim>
					<dim>66</dim>
					<dim>64</dim>
				</port>
			</output>
		</layer>
		<layer id="272" name="Constant_347" type="Const" version="opset1">
			<data element_type="i64" shape="4" offset="82" size="32" />
			<output>
				<port id="0" precision="I64">
					<dim>4</dim>
				</port>
			</output>
		</layer>
		<layer id="273" name="TCN_OAK_WRAPPED_1/temporal_block_3_1/conv1d_8_1/convolution__80" type="Transpose" version="opset1">
			<input>
				<port id="0" precision="FP32">
					<dim>1</dim>
					<dim>1</dim>
					<dim>66</dim>
					<dim>64</dim>
				</port>
				<port id="1" precision="I64">
					<dim>4</dim>
				</port>
			</input>
			<output>
				<port id="2" precision="FP32" names="TCN_OAK_WRAPPED_1/temporal_block_3_1/conv1d_8_1/convolution__80:0">
					<dim>1</dim>
					<dim>64</dim>
					<dim>1</dim>
					<dim>66</dim>
				</port>
			</output>
		</layer>
		<layer id="274" name="TCN_OAK_WRAPPED_1/temporal_block_3_1/conv1d_8_1/convolution/ExpandDims_1:0_compressed" type="Const" version="opset1">
			<data element_type="f16" shape="128, 64, 1, 3" offset="358880" size="49152" />
			<output>
				<port id="0" precision="FP16" names="TCN_OAK_WRAPPED_1/temporal_block_3_1/conv1d_8_1/convolution/ExpandDims_1:0">
					<dim>128</dim>
					<dim>64</dim>
					<dim>1</dim>
					<dim>3</dim>
				</port>
			</output>
		</layer>
		<layer id="275" name="TCN_OAK_WRAPPED_1/temporal_block_3_1/conv1d_8_1/convolution/ExpandDims_1:0" type="Convert" version="opset1">
			<data destination_type="f32" />
			<rt_info>
				<attribute name="decompression" version="0" />
			</rt_info>
			<input>
				<port id="0" precision="FP16">
					<dim>128</dim>
					<dim>64</dim>
					<dim>1</dim>
					<dim>3</dim>
				</port>
			</input>
			<output>
				<port id="1" precision="FP32">
					<dim>128</dim>
					<dim>64</dim>
					<dim>1</dim>
					<dim>3</dim>
				</port>
			</output>
		</layer>
		<layer id="276" name="TCN_OAK_WRAPPED_1/temporal_block_3_1/conv1d_8_1/convolution" type="Convolution" version="opset1">
			<data strides="1, 1" dilations="1, 8" pads_begin="0, 0" pads_end="0, 0" auto_pad="explicit" />
			<input>
				<port id="0" precision="FP32">
					<dim>1</dim>
					<dim>64</dim>
					<dim>1</dim>
					<dim>66</dim>
				</port>
				<port id="1" precision="FP32">
					<dim>128</dim>
					<dim>64</dim>
					<dim>1</dim>
					<dim>3</dim>
				</port>
			</input>
			<output>
				<port id="2" precision="FP32" names="TCN_OAK_WRAPPED_1/temporal_block_3_1/conv1d_8_1/convolution:0">
					<dim>1</dim>
					<dim>128</dim>
					<dim>1</dim>
					<dim>50</dim>
				</port>
			</output>
		</layer>
		<layer id="277" name="TCN_OAK_WRAPPED_1/temporal_block_3_1/conv1d_8_1/convolution/Squeeze" type="Squeeze" version="opset1">
			<input>
				<port id="0" precision="FP32">
					<dim>1</dim>
					<dim>128</dim>
					<dim>1</dim>
					<dim>50</dim>
				</port>
				<port id="1" precision="I64">
					<dim>1</dim>
				</port>
			</input>
			<output>
				<port id="2" precision="FP32" names="TCN_OAK_WRAPPED_1/temporal_block_3_1/conv1d_8_1/convolution/Squeeze:0">
					<dim>1</dim>
					<dim>128</dim>
					<dim>50</dim>
				</port>
			</output>
		</layer>
		<layer id="278" name="Constant_352" type="Const" version="opset1">
			<data element_type="i64" shape="3" offset="38138" size="24" />
			<output>
				<port id="0" precision="I64">
					<dim>3</dim>
				</port>
			</output>
		</layer>
		<layer id="279" name="TCN_OAK_WRAPPED_1/temporal_block_3_1/conv1d_8_1/convolution__81" type="Transpose" version="opset1">
			<input>
				<port id="0" precision="FP32">
					<dim>1</dim>
					<dim>128</dim>
					<dim>50</dim>
				</port>
				<port id="1" precision="I64">
					<dim>3</dim>
				</port>
			</input>
			<output>
				<port id="2" precision="FP32" names="TCN_OAK_WRAPPED_1/temporal_block_3_1/conv1d_8_1/convolution__81:0">
					<dim>1</dim>
					<dim>50</dim>
					<dim>128</dim>
				</port>
			</output>
		</layer>
		<layer id="280" name="Constant_2249_compressed" type="Const" version="opset1">
			<data element_type="f16" shape="1, 1, 1" offset="38162" size="2" />
			<output>
				<port id="0" precision="FP16">
					<dim>1</dim>
					<dim>1</dim>
					<dim>1</dim>
				</port>
			</output>
		</layer>
		<layer id="281" name="Constant_2249" type="Convert" version="opset1">
			<data destination_type="f32" />
			<rt_info>
				<attribute name="decompression" version="0" />
			</rt_info>
			<input>
				<port id="0" precision="FP16">
					<dim>1</dim>
					<dim>1</dim>
					<dim>1</dim>
				</port>
			</input>
			<output>
				<port id="1" precision="FP32">
					<dim>1</dim>
					<dim>1</dim>
					<dim>1</dim>
				</port>
			</output>
		</layer>
		<layer id="282" name="Range_360" type="Const" version="opset1">
			<data element_type="i64" shape="1" offset="38130" size="8" />
			<output>
				<port id="0" precision="I64">
					<dim>1</dim>
				</port>
			</output>
		</layer>
		<layer id="283" name="TCN_OAK_WRAPPED_1/temporal_block_3_1/layer_normalization_7_1/moments/mean" type="ReduceMean" version="opset1">
			<data keep_dims="true" />
			<input>
				<port id="0" precision="FP32">
					<dim>1</dim>
					<dim>50</dim>
					<dim>128</dim>
				</port>
				<port id="1" precision="I64">
					<dim>1</dim>
				</port>
			</input>
			<output>
				<port id="2" precision="FP32" names="TCN_OAK_WRAPPED_1/temporal_block_3_1/layer_normalization_7_1/moments/mean:0">
					<dim>1</dim>
					<dim>50</dim>
					<dim>1</dim>
				</port>
			</output>
		</layer>
		<layer id="284" name="TCN_OAK_WRAPPED_1/temporal_block_3_1/layer_normalization_7_1/moments/SquaredDifference" type="Subtract" version="opset1">
			<data auto_broadcast="numpy" />
			<input>
				<port id="0" precision="FP32">
					<dim>1</dim>
					<dim>50</dim>
					<dim>128</dim>
				</port>
				<port id="1" precision="FP32">
					<dim>1</dim>
					<dim>50</dim>
					<dim>1</dim>
				</port>
			</input>
			<output>
				<port id="2" precision="FP32" names="TCN_OAK_WRAPPED_1/temporal_block_3_1/layer_normalization_7_1/moments/SquaredDifference:0">
					<dim>1</dim>
					<dim>50</dim>
					<dim>128</dim>
				</port>
			</output>
		</layer>
		<layer id="285" name="TCN_OAK_WRAPPED_1/temporal_block_3_1/layer_normalization_7_1/moments/SquaredDifference__83" type="Multiply" version="opset1">
			<data auto_broadcast="numpy" />
			<input>
				<port id="0" precision="FP32">
					<dim>1</dim>
					<dim>50</dim>
					<dim>128</dim>
				</port>
				<port id="1" precision="FP32">
					<dim>1</dim>
					<dim>50</dim>
					<dim>128</dim>
				</port>
			</input>
			<output>
				<port id="2" precision="FP32" names="TCN_OAK_WRAPPED_1/temporal_block_3_1/layer_normalization_7_1/moments/SquaredDifference__83:0">
					<dim>1</dim>
					<dim>50</dim>
					<dim>128</dim>
				</port>
			</output>
		</layer>
		<layer id="286" name="Range_373" type="Const" version="opset1">
			<data element_type="i64" shape="1" offset="38130" size="8" />
			<output>
				<port id="0" precision="I64">
					<dim>1</dim>
				</port>
			</output>
		</layer>
		<layer id="287" name="TCN_OAK_WRAPPED_1/temporal_block_3_1/layer_normalization_7_1/moments/variance" type="ReduceMean" version="opset1">
			<data keep_dims="true" />
			<input>
				<port id="0" precision="FP32">
					<dim>1</dim>
					<dim>50</dim>
					<dim>128</dim>
				</port>
				<port id="1" precision="I64">
					<dim>1</dim>
				</port>
			</input>
			<output>
				<port id="2" precision="FP32" names="TCN_OAK_WRAPPED_1/temporal_block_3_1/layer_normalization_7_1/moments/variance:0">
					<dim>1</dim>
					<dim>50</dim>
					<dim>1</dim>
				</port>
			</output>
		</layer>
		<layer id="288" name="Constant_2248_compressed" type="Const" version="opset1">
			<data element_type="f16" shape="1, 1, 1" offset="38164" size="2" />
			<output>
				<port id="0" precision="FP16">
					<dim>1</dim>
					<dim>1</dim>
					<dim>1</dim>
				</port>
			</output>
		</layer>
		<layer id="289" name="Constant_2248" type="Convert" version="opset1">
			<data destination_type="f32" />
			<rt_info>
				<attribute name="decompression" version="0" />
			</rt_info>
			<input>
				<port id="0" precision="FP16">
					<dim>1</dim>
					<dim>1</dim>
					<dim>1</dim>
				</port>
			</input>
			<output>
				<port id="1" precision="FP32">
					<dim>1</dim>
					<dim>1</dim>
					<dim>1</dim>
				</port>
			</output>
		</layer>
		<layer id="290" name="TCN_OAK_WRAPPED_1/temporal_block_3_1/layer_normalization_7_1/add" type="Add" version="opset1">
			<data auto_broadcast="numpy" />
			<input>
				<port id="0" precision="FP32">
					<dim>1</dim>
					<dim>50</dim>
					<dim>1</dim>
				</port>
				<port id="1" precision="FP32">
					<dim>1</dim>
					<dim>1</dim>
					<dim>1</dim>
				</port>
			</input>
			<output>
				<port id="2" precision="FP32" names="TCN_OAK_WRAPPED_1/temporal_block_3_1/layer_normalization_7_1/add:0">
					<dim>1</dim>
					<dim>50</dim>
					<dim>1</dim>
				</port>
			</output>
		</layer>
		<layer id="291" name="TCN_OAK_WRAPPED_1/temporal_block_3_1/layer_normalization_7_1/Rsqrt" type="Sqrt" version="opset1">
			<input>
				<port id="0" precision="FP32">
					<dim>1</dim>
					<dim>50</dim>
					<dim>1</dim>
				</port>
			</input>
			<output>
				<port id="1" precision="FP32" names="TCN_OAK_WRAPPED_1/temporal_block_3_1/layer_normalization_7_1/Rsqrt:0">
					<dim>1</dim>
					<dim>50</dim>
					<dim>1</dim>
				</port>
			</output>
		</layer>
		<layer id="292" name="TCN_OAK_WRAPPED_1/temporal_block_3_1/layer_normalization_7_1/Rsqrt__84" type="Divide" version="opset1">
			<data auto_broadcast="numpy" m_pythondiv="true" />
			<input>
				<port id="0" precision="FP32">
					<dim>1</dim>
					<dim>1</dim>
					<dim>1</dim>
				</port>
				<port id="1" precision="FP32">
					<dim>1</dim>
					<dim>50</dim>
					<dim>1</dim>
				</port>
			</input>
			<output>
				<port id="2" precision="FP32" names="TCN_OAK_WRAPPED_1/temporal_block_3_1/layer_normalization_7_1/Rsqrt__84:0">
					<dim>1</dim>
					<dim>50</dim>
					<dim>1</dim>
				</port>
			</output>
		</layer>
		<layer id="293" name="TCN_OAK_WRAPPED_1/temporal_block_3_1/layer_normalization_7_1/mul" type="Multiply" version="opset1">
			<data auto_broadcast="numpy" />
			<input>
				<port id="0" precision="FP32">
					<dim>1</dim>
					<dim>50</dim>
					<dim>1</dim>
				</port>
				<port id="1" precision="FP32">
					<dim>1</dim>
					<dim>1</dim>
					<dim>128</dim>
				</port>
			</input>
			<output>
				<port id="2" precision="FP32" names="TCN_OAK_WRAPPED_1/temporal_block_3_1/layer_normalization_7_1/mul:0">
					<dim>1</dim>
					<dim>50</dim>
					<dim>128</dim>
				</port>
			</output>
		</layer>
		<layer id="294" name="TCN_OAK_WRAPPED_1/temporal_block_3_1/layer_normalization_7_1/mul_2" type="Multiply" version="opset1">
			<data auto_broadcast="numpy" />
			<input>
				<port id="0" precision="FP32">
					<dim>1</dim>
					<dim>50</dim>
					<dim>128</dim>
				</port>
				<port id="1" precision="FP32">
					<dim>1</dim>
					<dim>50</dim>
					<dim>128</dim>
				</port>
			</input>
			<output>
				<port id="2" precision="FP32" names="TCN_OAK_WRAPPED_1/temporal_block_3_1/layer_normalization_7_1/mul_2:0">
					<dim>1</dim>
					<dim>50</dim>
					<dim>128</dim>
				</port>
			</output>
		</layer>
		<layer id="295" name="Constant_2250_compressed" type="Const" version="opset1">
			<data element_type="f16" shape="1, 1, 1" offset="38294" size="2" />
			<output>
				<port id="0" precision="FP16">
					<dim>1</dim>
					<dim>1</dim>
					<dim>1</dim>
				</port>
			</output>
		</layer>
		<layer id="296" name="Constant_2250" type="Convert" version="opset1">
			<data destination_type="f32" />
			<rt_info>
				<attribute name="decompression" version="0" />
			</rt_info>
			<input>
				<port id="0" precision="FP16">
					<dim>1</dim>
					<dim>1</dim>
					<dim>1</dim>
				</port>
			</input>
			<output>
				<port id="1" precision="FP32">
					<dim>1</dim>
					<dim>1</dim>
					<dim>1</dim>
				</port>
			</output>
		</layer>
		<layer id="297" name="TCN_OAK_WRAPPED_1/temporal_block_3_1/layer_normalization_7_1/Neg" type="Multiply" version="opset1">
			<data auto_broadcast="numpy" />
			<input>
				<port id="0" precision="FP32">
					<dim>1</dim>
					<dim>50</dim>
					<dim>1</dim>
				</port>
				<port id="1" precision="FP32">
					<dim>1</dim>
					<dim>1</dim>
					<dim>1</dim>
				</port>
			</input>
			<output>
				<port id="2" precision="FP32" names="TCN_OAK_WRAPPED_1/temporal_block_3_1/layer_normalization_7_1/Neg:0">
					<dim>1</dim>
					<dim>50</dim>
					<dim>1</dim>
				</port>
			</output>
		</layer>
		<layer id="298" name="TCN_OAK_WRAPPED_1/temporal_block_3_1/layer_normalization_7_1/mul_1" type="Multiply" version="opset1">
			<data auto_broadcast="numpy" />
			<input>
				<port id="0" precision="FP32">
					<dim>1</dim>
					<dim>50</dim>
					<dim>1</dim>
				</port>
				<port id="1" precision="FP32">
					<dim>1</dim>
					<dim>50</dim>
					<dim>128</dim>
				</port>
			</input>
			<output>
				<port id="2" precision="FP32" names="TCN_OAK_WRAPPED_1/temporal_block_3_1/layer_normalization_7_1/mul_1:0">
					<dim>1</dim>
					<dim>50</dim>
					<dim>128</dim>
				</port>
			</output>
		</layer>
		<layer id="299" name="TCN_OAK_WRAPPED_1/temporal_block_3_1/layer_normalization_7_1/add_2" type="Add" version="opset1">
			<data auto_broadcast="numpy" />
			<input>
				<port id="0" precision="FP32">
					<dim>1</dim>
					<dim>50</dim>
					<dim>128</dim>
				</port>
				<port id="1" precision="FP32">
					<dim>1</dim>
					<dim>50</dim>
					<dim>128</dim>
				</port>
			</input>
			<output>
				<port id="2" precision="FP32" names="TCN_OAK_WRAPPED_1/temporal_block_3_1/layer_normalization_7_1/add_2:0">
					<dim>1</dim>
					<dim>50</dim>
					<dim>128</dim>
				</port>
			</output>
		</layer>
		<layer id="300" name="TCN_OAK_WRAPPED_1/temporal_block_3_1/activation_7_1/Relu" type="ReLU" version="opset1">
			<input>
				<port id="0" precision="FP32">
					<dim>1</dim>
					<dim>50</dim>
					<dim>128</dim>
				</port>
			</input>
			<output>
				<port id="1" precision="FP32" names="TCN_OAK_WRAPPED_1/temporal_block_3_1/activation_7_1/Relu:0">
					<dim>1</dim>
					<dim>50</dim>
					<dim>128</dim>
				</port>
			</output>
		</layer>
		<layer id="301" name="TCN_OAK_WRAPPED_1/temporal_block_3_1/add_3_1/Add" type="Add" version="opset1">
			<data auto_broadcast="numpy" />
			<input>
				<port id="0" precision="FP32">
					<dim>1</dim>
					<dim>50</dim>
					<dim>128</dim>
				</port>
				<port id="1" precision="FP32">
					<dim>1</dim>
					<dim>50</dim>
					<dim>128</dim>
				</port>
			</input>
			<output>
				<port id="2" precision="FP32" names="TCN_OAK_WRAPPED_1/temporal_block_3_1/add_3_1/Add:0">
					<dim>1</dim>
					<dim>50</dim>
					<dim>128</dim>
				</port>
			</output>
		</layer>
		<layer id="302" name="Constant_387" type="Const" version="opset1">
			<data element_type="i64" shape="1" offset="408032" size="8" />
			<output>
				<port id="0" precision="I64">
					<dim>1</dim>
				</port>
			</output>
		</layer>
		<layer id="303" name="TCN_OAK_WRAPPED_1/global_average_pooling1d_1/Mean" type="ReduceMean" version="opset1">
			<data keep_dims="false" />
			<input>
				<port id="0" precision="FP32">
					<dim>1</dim>
					<dim>50</dim>
					<dim>128</dim>
				</port>
				<port id="1" precision="I64">
					<dim>1</dim>
				</port>
			</input>
			<output>
				<port id="2" precision="FP32" names="TCN_OAK_WRAPPED_1/global_average_pooling1d_1/Mean:0">
					<dim>1</dim>
					<dim>128</dim>
				</port>
			</output>
		</layer>
		<layer id="304" name="Transpose_2183_compressed" type="Const" version="opset1">
			<data element_type="f16" shape="5, 128" offset="408040" size="1280" />
			<output>
				<port id="0" precision="FP16">
					<dim>5</dim>
					<dim>128</dim>
				</port>
			</output>
		</layer>
		<layer id="305" name="Transpose_2183" type="Convert" version="opset1">
			<data destination_type="f32" />
			<rt_info>
				<attribute name="decompression" version="0" />
			</rt_info>
			<input>
				<port id="0" precision="FP16">
					<dim>5</dim>
					<dim>128</dim>
				</port>
			</input>
			<output>
				<port id="1" precision="FP32">
					<dim>5</dim>
					<dim>128</dim>
				</port>
			</output>
		</layer>
		<layer id="306" name="TCN_OAK_WRAPPED_1/dense_1/MatMul" type="MatMul" version="opset1">
			<data transpose_a="false" transpose_b="true" />
			<input>
				<port id="0" precision="FP32">
					<dim>1</dim>
					<dim>128</dim>
				</port>
				<port id="1" precision="FP32">
					<dim>5</dim>
					<dim>128</dim>
				</port>
			</input>
			<output>
				<port id="2" precision="FP32" names="TCN_OAK_WRAPPED_1/dense_1/MatMul:0">
					<dim>1</dim>
					<dim>5</dim>
				</port>
			</output>
		</layer>
		<layer id="307" name="dense" type="SoftMax" version="opset8">
			<data axis="-1" />
			<input>
				<port id="0" precision="FP32">
					<dim>1</dim>
					<dim>5</dim>
				</port>
			</input>
			<output>
				<port id="1" precision="FP32" names="dense">
					<dim>1</dim>
					<dim>5</dim>
				</port>
			</output>
		</layer>
		<layer id="308" name="dense/sink_port_0" type="Result" version="opset1">
			<input>
				<port id="0" precision="FP32">
					<dim>1</dim>
					<dim>5</dim>
				</port>
			</input>
		</layer>
	</layers>
	<edges>
		<edge from-layer="0" from-port="0" to-layer="2" to-port="0" />
		<edge from-layer="1" from-port="0" to-layer="2" to-port="1" />
		<edge from-layer="2" from-port="2" to-layer="7" to-port="0" />
		<edge from-layer="2" from-port="2" to-layer="79" to-port="0" />
		<edge from-layer="3" from-port="0" to-layer="7" to-port="1" />
		<edge from-layer="4" from-port="0" to-layer="7" to-port="2" />
		<edge from-layer="5" from-port="0" to-layer="6" to-port="0" />
		<edge from-layer="6" from-port="1" to-layer="7" to-port="3" />
		<edge from-layer="7" from-port="4" to-layer="9" to-port="0" />
		<edge from-layer="8" from-port="0" to-layer="9" to-port="1" />
		<edge from-layer="8" from-port="0" to-layer="165" to-port="1" />
		<edge from-layer="8" from-port="0" to-layer="200" to-port="1" />
		<edge from-layer="8" from-port="0" to-layer="236" to-port="1" />
		<edge from-layer="8" from-port="0" to-layer="271" to-port="1" />
		<edge from-layer="8" from-port="0" to-layer="129" to-port="1" />
		<edge from-layer="8" from-port="0" to-layer="94" to-port="1" />
		<edge from-layer="8" from-port="0" to-layer="79" to-port="1" />
		<edge from-layer="8" from-port="0" to-layer="47" to-port="1" />
		<edge from-layer="9" from-port="2" to-layer="11" to-port="0" />
		<edge from-layer="10" from-port="0" to-layer="11" to-port="1" />
		<edge from-layer="11" from-port="2" to-layer="14" to-port="0" />
		<edge from-layer="12" from-port="0" to-layer="13" to-port="0" />
		<edge from-layer="13" from-port="1" to-layer="14" to-port="1" />
		<edge from-layer="14" from-port="2" to-layer="16" to-port="0" />
		<edge from-layer="15" from-port="0" to-layer="171" to-port="1" />
		<edge from-layer="15" from-port="0" to-layer="100" to-port="1" />
		<edge from-layer="15" from-port="0" to-layer="135" to-port="1" />
		<edge from-layer="15" from-port="0" to-layer="277" to-port="1" />
		<edge from-layer="15" from-port="0" to-layer="242" to-port="1" />
		<edge from-layer="15" from-port="0" to-layer="206" to-port="1" />
		<edge from-layer="15" from-port="0" to-layer="16" to-port="1" />
		<edge from-layer="15" from-port="0" to-layer="85" to-port="1" />
		<edge from-layer="15" from-port="0" to-layer="53" to-port="1" />
		<edge from-layer="16" from-port="2" to-layer="18" to-port="0" />
		<edge from-layer="17" from-port="0" to-layer="18" to-port="1" />
		<edge from-layer="18" from-port="2" to-layer="22" to-port="0" />
		<edge from-layer="18" from-port="2" to-layer="35" to-port="0" />
		<edge from-layer="18" from-port="2" to-layer="23" to-port="0" />
		<edge from-layer="19" from-port="0" to-layer="20" to-port="0" />
		<edge from-layer="20" from-port="1" to-layer="31" to-port="0" />
		<edge from-layer="21" from-port="0" to-layer="22" to-port="1" />
		<edge from-layer="22" from-port="2" to-layer="38" to-port="0" />
		<edge from-layer="22" from-port="2" to-layer="23" to-port="1" />
		<edge from-layer="23" from-port="2" to-layer="24" to-port="1" />
		<edge from-layer="23" from-port="2" to-layer="24" to-port="0" />
		<edge from-layer="24" from-port="2" to-layer="26" to-port="0" />
		<edge from-layer="25" from-port="0" to-layer="26" to-port="1" />
		<edge from-layer="26" from-port="2" to-layer="29" to-port="0" />
		<edge from-layer="27" from-port="0" to-layer="28" to-port="0" />
		<edge from-layer="28" from-port="1" to-layer="29" to-port="1" />
		<edge from-layer="29" from-port="2" to-layer="30" to-port="0" />
		<edge from-layer="30" from-port="1" to-layer="31" to-port="1" />
		<edge from-layer="31" from-port="2" to-layer="34" to-port="0" />
		<edge from-layer="32" from-port="0" to-layer="33" to-port="0" />
		<edge from-layer="33" from-port="1" to-layer="116" to-port="1" />
		<edge from-layer="33" from-port="1" to-layer="187" to-port="1" />
		<edge from-layer="33" from-port="1" to-layer="258" to-port="1" />
		<edge from-layer="33" from-port="1" to-layer="34" to-port="1" />
		<edge from-layer="34" from-port="2" to-layer="35" to-port="1" />
		<edge from-layer="34" from-port="2" to-layer="39" to-port="1" />
		<edge from-layer="35" from-port="2" to-layer="40" to-port="0" />
		<edge from-layer="36" from-port="0" to-layer="37" to-port="0" />
		<edge from-layer="37" from-port="1" to-layer="38" to-port="1" />
		<edge from-layer="38" from-port="2" to-layer="39" to-port="0" />
		<edge from-layer="39" from-port="2" to-layer="40" to-port="1" />
		<edge from-layer="40" from-port="2" to-layer="41" to-port="0" />
		<edge from-layer="41" from-port="1" to-layer="46" to-port="0" />
		<edge from-layer="42" from-port="0" to-layer="46" to-port="1" />
		<edge from-layer="43" from-port="0" to-layer="46" to-port="2" />
		<edge from-layer="44" from-port="0" to-layer="45" to-port="0" />
		<edge from-layer="45" from-port="1" to-layer="46" to-port="3" />
		<edge from-layer="46" from-port="4" to-layer="47" to-port="0" />
		<edge from-layer="47" from-port="2" to-layer="49" to-port="0" />
		<edge from-layer="48" from-port="0" to-layer="49" to-port="1" />
		<edge from-layer="49" from-port="2" to-layer="52" to-port="0" />
		<edge from-layer="50" from-port="0" to-layer="51" to-port="0" />
		<edge from-layer="51" from-port="1" to-layer="52" to-port="1" />
		<edge from-layer="52" from-port="2" to-layer="53" to-port="0" />
		<edge from-layer="53" from-port="2" to-layer="55" to-port="0" />
		<edge from-layer="54" from-port="0" to-layer="55" to-port="1" />
		<edge from-layer="55" from-port="2" to-layer="60" to-port="0" />
		<edge from-layer="55" from-port="2" to-layer="72" to-port="0" />
		<edge from-layer="55" from-port="2" to-layer="59" to-port="0" />
		<edge from-layer="56" from-port="0" to-layer="57" to-port="0" />
		<edge from-layer="57" from-port="1" to-layer="68" to-port="0" />
		<edge from-layer="58" from-port="0" to-layer="59" to-port="1" />
		<edge from-layer="59" from-port="2" to-layer="60" to-port="1" />
		<edge from-layer="59" from-port="2" to-layer="75" to-port="0" />
		<edge from-layer="60" from-port="2" to-layer="61" to-port="1" />
		<edge from-layer="60" from-port="2" to-layer="61" to-port="0" />
		<edge from-layer="61" from-port="2" to-layer="63" to-port="0" />
		<edge from-layer="62" from-port="0" to-layer="63" to-port="1" />
		<edge from-layer="63" from-port="2" to-layer="66" to-port="0" />
		<edge from-layer="64" from-port="0" to-layer="65" to-port="0" />
		<edge from-layer="65" from-port="1" to-layer="66" to-port="1" />
		<edge from-layer="66" from-port="2" to-layer="67" to-port="0" />
		<edge from-layer="67" from-port="1" to-layer="68" to-port="1" />
		<edge from-layer="68" from-port="2" to-layer="71" to-port="0" />
		<edge from-layer="69" from-port="0" to-layer="70" to-port="0" />
		<edge from-layer="70" from-port="1" to-layer="222" to-port="1" />
		<edge from-layer="70" from-port="1" to-layer="71" to-port="1" />
		<edge from-layer="70" from-port="1" to-layer="293" to-port="1" />
		<edge from-layer="70" from-port="1" to-layer="151" to-port="1" />
		<edge from-layer="71" from-port="2" to-layer="76" to-port="1" />
		<edge from-layer="71" from-port="2" to-layer="72" to-port="1" />
		<edge from-layer="72" from-port="2" to-layer="77" to-port="0" />
		<edge from-layer="73" from-port="0" to-layer="74" to-port="0" />
		<edge from-layer="74" from-port="1" to-layer="75" to-port="1" />
		<edge from-layer="75" from-port="2" to-layer="76" to-port="0" />
		<edge from-layer="76" from-port="2" to-layer="77" to-port="1" />
		<edge from-layer="77" from-port="2" to-layer="78" to-port="0" />
		<edge from-layer="78" from-port="1" to-layer="88" to-port="0" />
		<edge from-layer="79" from-port="2" to-layer="81" to-port="0" />
		<edge from-layer="80" from-port="0" to-layer="81" to-port="1" />
		<edge from-layer="81" from-port="2" to-layer="84" to-port="0" />
		<edge from-layer="82" from-port="0" to-layer="83" to-port="0" />
		<edge from-layer="83" from-port="1" to-layer="84" to-port="1" />
		<edge from-layer="84" from-port="2" to-layer="85" to-port="0" />
		<edge from-layer="85" from-port="2" to-layer="87" to-port="0" />
		<edge from-layer="86" from-port="0" to-layer="87" to-port="1" />
		<edge from-layer="87" from-port="2" to-layer="88" to-port="1" />
		<edge from-layer="88" from-port="2" to-layer="93" to-port="0" />
		<edge from-layer="88" from-port="2" to-layer="159" to-port="1" />
		<edge from-layer="89" from-port="0" to-layer="93" to-port="1" />
		<edge from-layer="90" from-port="0" to-layer="93" to-port="2" />
		<edge from-layer="91" from-port="0" to-layer="92" to-port="0" />
		<edge from-layer="92" from-port="1" to-layer="93" to-port="3" />
		<edge from-layer="93" from-port="4" to-layer="94" to-port="0" />
		<edge from-layer="94" from-port="2" to-layer="96" to-port="0" />
		<edge from-layer="95" from-port="0" to-layer="96" to-port="1" />
		<edge from-layer="96" from-port="2" to-layer="99" to-port="0" />
		<edge from-layer="97" from-port="0" to-layer="98" to-port="0" />
		<edge from-layer="98" from-port="1" to-layer="99" to-port="1" />
		<edge from-layer="99" from-port="2" to-layer="100" to-port="0" />
		<edge from-layer="100" from-port="2" to-layer="102" to-port="0" />
		<edge from-layer="101" from-port="0" to-layer="102" to-port="1" />
		<edge from-layer="102" from-port="2" to-layer="117" to-port="0" />
		<edge from-layer="102" from-port="2" to-layer="107" to-port="0" />
		<edge from-layer="102" from-port="2" to-layer="106" to-port="0" />
		<edge from-layer="103" from-port="0" to-layer="104" to-port="0" />
		<edge from-layer="104" from-port="1" to-layer="115" to-port="0" />
		<edge from-layer="105" from-port="0" to-layer="106" to-port="1" />
		<edge from-layer="106" from-port="2" to-layer="120" to-port="0" />
		<edge from-layer="106" from-port="2" to-layer="107" to-port="1" />
		<edge from-layer="107" from-port="2" to-layer="108" to-port="1" />
		<edge from-layer="107" from-port="2" to-layer="108" to-port="0" />
		<edge from-layer="108" from-port="2" to-layer="110" to-port="0" />
		<edge from-layer="109" from-port="0" to-layer="110" to-port="1" />
		<edge from-layer="110" from-port="2" to-layer="113" to-port="0" />
		<edge from-layer="111" from-port="0" to-layer="112" to-port="0" />
		<edge from-layer="112" from-port="1" to-layer="113" to-port="1" />
		<edge from-layer="113" from-port="2" to-layer="114" to-port="0" />
		<edge from-layer="114" from-port="1" to-layer="115" to-port="1" />
		<edge from-layer="115" from-port="2" to-layer="116" to-port="0" />
		<edge from-layer="116" from-port="2" to-layer="117" to-port="1" />
		<edge from-layer="116" from-port="2" to-layer="121" to-port="1" />
		<edge from-layer="117" from-port="2" to-layer="122" to-port="0" />
		<edge from-layer="118" from-port="0" to-layer="119" to-port="0" />
		<edge from-layer="119" from-port="1" to-layer="120" to-port="1" />
		<edge from-layer="120" from-port="2" to-layer="121" to-port="0" />
		<edge from-layer="121" from-port="2" to-layer="122" to-port="1" />
		<edge from-layer="122" from-port="2" to-layer="123" to-port="0" />
		<edge from-layer="123" from-port="1" to-layer="128" to-port="0" />
		<edge from-layer="124" from-port="0" to-layer="128" to-port="1" />
		<edge from-layer="125" from-port="0" to-layer="128" to-port="2" />
		<edge from-layer="126" from-port="0" to-layer="127" to-port="0" />
		<edge from-layer="127" from-port="1" to-layer="128" to-port="3" />
		<edge from-layer="128" from-port="4" to-layer="129" to-port="0" />
		<edge from-layer="129" from-port="2" to-layer="131" to-port="0" />
		<edge from-layer="130" from-port="0" to-layer="131" to-port="1" />
		<edge from-layer="131" from-port="2" to-layer="134" to-port="0" />
		<edge from-layer="132" from-port="0" to-layer="133" to-port="0" />
		<edge from-layer="133" from-port="1" to-layer="134" to-port="1" />
		<edge from-layer="134" from-port="2" to-layer="135" to-port="0" />
		<edge from-layer="135" from-port="2" to-layer="137" to-port="0" />
		<edge from-layer="136" from-port="0" to-layer="137" to-port="1" />
		<edge from-layer="137" from-port="2" to-layer="152" to-port="0" />
		<edge from-layer="137" from-port="2" to-layer="142" to-port="0" />
		<edge from-layer="137" from-port="2" to-layer="141" to-port="0" />
		<edge from-layer="138" from-port="0" to-layer="139" to-port="0" />
		<edge from-layer="139" from-port="1" to-layer="150" to-port="0" />
		<edge from-layer="140" from-port="0" to-layer="141" to-port="1" />
		<edge from-layer="141" from-port="2" to-layer="155" to-port="0" />
		<edge from-layer="141" from-port="2" to-layer="142" to-port="1" />
		<edge from-layer="142" from-port="2" to-layer="143" to-port="0" />
		<edge from-layer="142" from-port="2" to-layer="143" to-port="1" />
		<edge from-layer="143" from-port="2" to-layer="145" to-port="0" />
		<edge from-layer="144" from-port="0" to-layer="145" to-port="1" />
		<edge from-layer="145" from-port="2" to-layer="148" to-port="0" />
		<edge from-layer="146" from-port="0" to-layer="147" to-port="0" />
		<edge from-layer="147" from-port="1" to-layer="148" to-port="1" />
		<edge from-layer="148" from-port="2" to-layer="149" to-port="0" />
		<edge from-layer="149" from-port="1" to-layer="150" to-port="1" />
		<edge from-layer="150" from-port="2" to-layer="151" to-port="0" />
		<edge from-layer="151" from-port="2" to-layer="152" to-port="1" />
		<edge from-layer="151" from-port="2" to-layer="156" to-port="1" />
		<edge from-layer="152" from-port="2" to-layer="157" to-port="0" />
		<edge from-layer="153" from-port="0" to-layer="154" to-port="0" />
		<edge from-layer="154" from-port="1" to-layer="155" to-port="1" />
		<edge from-layer="155" from-port="2" to-layer="156" to-port="0" />
		<edge from-layer="156" from-port="2" to-layer="157" to-port="1" />
		<edge from-layer="157" from-port="2" to-layer="158" to-port="0" />
		<edge from-layer="158" from-port="1" to-layer="159" to-port="0" />
		<edge from-layer="159" from-port="2" to-layer="164" to-port="0" />
		<edge from-layer="159" from-port="2" to-layer="230" to-port="1" />
		<edge from-layer="160" from-port="0" to-layer="164" to-port="1" />
		<edge from-layer="161" from-port="0" to-layer="164" to-port="2" />
		<edge from-layer="162" from-port="0" to-layer="163" to-port="0" />
		<edge from-layer="163" from-port="1" to-layer="164" to-port="3" />
		<edge from-layer="164" from-port="4" to-layer="165" to-port="0" />
		<edge from-layer="165" from-port="2" to-layer="167" to-port="0" />
		<edge from-layer="166" from-port="0" to-layer="167" to-port="1" />
		<edge from-layer="167" from-port="2" to-layer="170" to-port="0" />
		<edge from-layer="168" from-port="0" to-layer="169" to-port="0" />
		<edge from-layer="169" from-port="1" to-layer="170" to-port="1" />
		<edge from-layer="170" from-port="2" to-layer="171" to-port="0" />
		<edge from-layer="171" from-port="2" to-layer="173" to-port="0" />
		<edge from-layer="172" from-port="0" to-layer="173" to-port="1" />
		<edge from-layer="173" from-port="2" to-layer="178" to-port="0" />
		<edge from-layer="173" from-port="2" to-layer="177" to-port="0" />
		<edge from-layer="173" from-port="2" to-layer="188" to-port="0" />
		<edge from-layer="174" from-port="0" to-layer="175" to-port="0" />
		<edge from-layer="175" from-port="1" to-layer="186" to-port="0" />
		<edge from-layer="176" from-port="0" to-layer="177" to-port="1" />
		<edge from-layer="177" from-port="2" to-layer="191" to-port="0" />
		<edge from-layer="177" from-port="2" to-layer="178" to-port="1" />
		<edge from-layer="178" from-port="2" to-layer="179" to-port="1" />
		<edge from-layer="178" from-port="2" to-layer="179" to-port="0" />
		<edge from-layer="179" from-port="2" to-layer="181" to-port="0" />
		<edge from-layer="180" from-port="0" to-layer="181" to-port="1" />
		<edge from-layer="181" from-port="2" to-layer="184" to-port="0" />
		<edge from-layer="182" from-port="0" to-layer="183" to-port="0" />
		<edge from-layer="183" from-port="1" to-layer="184" to-port="1" />
		<edge from-layer="184" from-port="2" to-layer="185" to-port="0" />
		<edge from-layer="185" from-port="1" to-layer="186" to-port="1" />
		<edge from-layer="186" from-port="2" to-layer="187" to-port="0" />
		<edge from-layer="187" from-port="2" to-layer="192" to-port="1" />
		<edge from-layer="187" from-port="2" to-layer="188" to-port="1" />
		<edge from-layer="188" from-port="2" to-layer="193" to-port="0" />
		<edge from-layer="189" from-port="0" to-layer="190" to-port="0" />
		<edge from-layer="190" from-port="1" to-layer="191" to-port="1" />
		<edge from-layer="191" from-port="2" to-layer="192" to-port="0" />
		<edge from-layer="192" from-port="2" to-layer="193" to-port="1" />
		<edge from-layer="193" from-port="2" to-layer="194" to-port="0" />
		<edge from-layer="194" from-port="1" to-layer="199" to-port="0" />
		<edge from-layer="195" from-port="0" to-layer="199" to-port="1" />
		<edge from-layer="196" from-port="0" to-layer="199" to-port="2" />
		<edge from-layer="197" from-port="0" to-layer="198" to-port="0" />
		<edge from-layer="198" from-port="1" to-layer="199" to-port="3" />
		<edge from-layer="199" from-port="4" to-layer="200" to-port="0" />
		<edge from-layer="200" from-port="2" to-layer="202" to-port="0" />
		<edge from-layer="201" from-port="0" to-layer="202" to-port="1" />
		<edge from-layer="202" from-port="2" to-layer="205" to-port="0" />
		<edge from-layer="203" from-port="0" to-layer="204" to-port="0" />
		<edge from-layer="204" from-port="1" to-layer="205" to-port="1" />
		<edge from-layer="205" from-port="2" to-layer="206" to-port="0" />
		<edge from-layer="206" from-port="2" to-layer="208" to-port="0" />
		<edge from-layer="207" from-port="0" to-layer="208" to-port="1" />
		<edge from-layer="208" from-port="2" to-layer="212" to-port="0" />
		<edge from-layer="208" from-port="2" to-layer="213" to-port="0" />
		<edge from-layer="208" from-port="2" to-layer="223" to-port="0" />
		<edge from-layer="209" from-port="0" to-layer="210" to-port="0" />
		<edge from-layer="210" from-port="1" to-layer="221" to-port="0" />
		<edge from-layer="211" from-port="0" to-layer="212" to-port="1" />
		<edge from-layer="212" from-port="2" to-layer="213" to-port="1" />
		<edge from-layer="212" from-port="2" to-layer="226" to-port="0" />
		<edge from-layer="213" from-port="2" to-layer="214" to-port="0" />
		<edge from-layer="213" from-port="2" to-layer="214" to-port="1" />
		<edge from-layer="214" from-port="2" to-layer="216" to-port="0" />
		<edge from-layer="215" from-port="0" to-layer="216" to-port="1" />
		<edge from-layer="216" from-port="2" to-layer="219" to-port="0" />
		<edge from-layer="217" from-port="0" to-layer="218" to-port="0" />
		<edge from-layer="218" from-port="1" to-layer="219" to-port="1" />
		<edge from-layer="219" from-port="2" to-layer="220" to-port="0" />
		<edge from-layer="220" from-port="1" to-layer="221" to-port="1" />
		<edge from-layer="221" from-port="2" to-layer="222" to-port="0" />
		<edge from-layer="222" from-port="2" to-layer="227" to-port="1" />
		<edge from-layer="222" from-port="2" to-layer="223" to-port="1" />
		<edge from-layer="223" from-port="2" to-layer="228" to-port="0" />
		<edge from-layer="224" from-port="0" to-layer="225" to-port="0" />
		<edge from-layer="225" from-port="1" to-layer="226" to-port="1" />
		<edge from-layer="226" from-port="2" to-layer="227" to-port="0" />
		<edge from-layer="227" from-port="2" to-layer="228" to-port="1" />
		<edge from-layer="228" from-port="2" to-layer="229" to-port="0" />
		<edge from-layer="229" from-port="1" to-layer="230" to-port="0" />
		<edge from-layer="230" from-port="2" to-layer="235" to-port="0" />
		<edge from-layer="230" from-port="2" to-layer="301" to-port="1" />
		<edge from-layer="231" from-port="0" to-layer="235" to-port="1" />
		<edge from-layer="232" from-port="0" to-layer="235" to-port="2" />
		<edge from-layer="233" from-port="0" to-layer="234" to-port="0" />
		<edge from-layer="234" from-port="1" to-layer="235" to-port="3" />
		<edge from-layer="235" from-port="4" to-layer="236" to-port="0" />
		<edge from-layer="236" from-port="2" to-layer="238" to-port="0" />
		<edge from-layer="237" from-port="0" to-layer="238" to-port="1" />
		<edge from-layer="238" from-port="2" to-layer="241" to-port="0" />
		<edge from-layer="239" from-port="0" to-layer="240" to-port="0" />
		<edge from-layer="240" from-port="1" to-layer="241" to-port="1" />
		<edge from-layer="241" from-port="2" to-layer="242" to-port="0" />
		<edge from-layer="242" from-port="2" to-layer="244" to-port="0" />
		<edge from-layer="243" from-port="0" to-layer="244" to-port="1" />
		<edge from-layer="244" from-port="2" to-layer="248" to-port="0" />
		<edge from-layer="244" from-port="2" to-layer="259" to-port="0" />
		<edge from-layer="244" from-port="2" to-layer="249" to-port="0" />
		<edge from-layer="245" from-port="0" to-layer="246" to-port="0" />
		<edge from-layer="246" from-port="1" to-layer="257" to-port="0" />
		<edge from-layer="247" from-port="0" to-layer="248" to-port="1" />
		<edge from-layer="248" from-port="2" to-layer="262" to-port="0" />
		<edge from-layer="248" from-port="2" to-layer="249" to-port="1" />
		<edge from-layer="249" from-port="2" to-layer="250" to-port="0" />
		<edge from-layer="249" from-port="2" to-layer="250" to-port="1" />
		<edge from-layer="250" from-port="2" to-layer="252" to-port="0" />
		<edge from-layer="251" from-port="0" to-layer="252" to-port="1" />
		<edge from-layer="252" from-port="2" to-layer="255" to-port="0" />
		<edge from-layer="253" from-port="0" to-layer="254" to-port="0" />
		<edge from-layer="254" from-port="1" to-layer="255" to-port="1" />
		<edge from-layer="255" from-port="2" to-layer="256" to-port="0" />
		<edge from-layer="256" from-port="1" to-layer="257" to-port="1" />
		<edge from-layer="257" from-port="2" to-layer="258" to-port="0" />
		<edge from-layer="258" from-port="2" to-layer="259" to-port="1" />
		<edge from-layer="258" from-port="2" to-layer="263" to-port="1" />
		<edge from-layer="259" from-port="2" to-layer="264" to-port="0" />
		<edge from-layer="260" from-port="0" to-layer="261" to-port="0" />
		<edge from-layer="261" from-port="1" to-layer="262" to-port="1" />
		<edge from-layer="262" from-port="2" to-layer="263" to-port="0" />
		<edge from-layer="263" from-port="2" to-layer="264" to-port="1" />
		<edge from-layer="264" from-port="2" to-layer="265" to-port="0" />
		<edge from-layer="265" from-port="1" to-layer="270" to-port="0" />
		<edge from-layer="266" from-port="0" to-layer="270" to-port="1" />
		<edge from-layer="267" from-port="0" to-layer="270" to-port="2" />
		<edge from-layer="268" from-port="0" to-layer="269" to-port="0" />
		<edge from-layer="269" from-port="1" to-layer="270" to-port="3" />
		<edge from-layer="270" from-port="4" to-layer="271" to-port="0" />
		<edge from-layer="271" from-port="2" to-layer="273" to-port="0" />
		<edge from-layer="272" from-port="0" to-layer="273" to-port="1" />
		<edge from-layer="273" from-port="2" to-layer="276" to-port="0" />
		<edge from-layer="274" from-port="0" to-layer="275" to-port="0" />
		<edge from-layer="275" from-port="1" to-layer="276" to-port="1" />
		<edge from-layer="276" from-port="2" to-layer="277" to-port="0" />
		<edge from-layer="277" from-port="2" to-layer="279" to-port="0" />
		<edge from-layer="278" from-port="0" to-layer="279" to-port="1" />
		<edge from-layer="279" from-port="2" to-layer="283" to-port="0" />
		<edge from-layer="279" from-port="2" to-layer="284" to-port="0" />
		<edge from-layer="279" from-port="2" to-layer="294" to-port="0" />
		<edge from-layer="280" from-port="0" to-layer="281" to-port="0" />
		<edge from-layer="281" from-port="1" to-layer="292" to-port="0" />
		<edge from-layer="282" from-port="0" to-layer="283" to-port="1" />
		<edge from-layer="283" from-port="2" to-layer="284" to-port="1" />
		<edge from-layer="283" from-port="2" to-layer="297" to-port="0" />
		<edge from-layer="284" from-port="2" to-layer="285" to-port="0" />
		<edge from-layer="284" from-port="2" to-layer="285" to-port="1" />
		<edge from-layer="285" from-port="2" to-layer="287" to-port="0" />
		<edge from-layer="286" from-port="0" to-layer="287" to-port="1" />
		<edge from-layer="287" from-port="2" to-layer="290" to-port="0" />
		<edge from-layer="288" from-port="0" to-layer="289" to-port="0" />
		<edge from-layer="289" from-port="1" to-layer="290" to-port="1" />
		<edge from-layer="290" from-port="2" to-layer="291" to-port="0" />
		<edge from-layer="291" from-port="1" to-layer="292" to-port="1" />
		<edge from-layer="292" from-port="2" to-layer="293" to-port="0" />
		<edge from-layer="293" from-port="2" to-layer="294" to-port="1" />
		<edge from-layer="293" from-port="2" to-layer="298" to-port="1" />
		<edge from-layer="294" from-port="2" to-layer="299" to-port="0" />
		<edge from-layer="295" from-port="0" to-layer="296" to-port="0" />
		<edge from-layer="296" from-port="1" to-layer="297" to-port="1" />
		<edge from-layer="297" from-port="2" to-layer="298" to-port="0" />
		<edge from-layer="298" from-port="2" to-layer="299" to-port="1" />
		<edge from-layer="299" from-port="2" to-layer="300" to-port="0" />
		<edge from-layer="300" from-port="1" to-layer="301" to-port="0" />
		<edge from-layer="301" from-port="2" to-layer="303" to-port="0" />
		<edge from-layer="302" from-port="0" to-layer="303" to-port="1" />
		<edge from-layer="303" from-port="2" to-layer="306" to-port="0" />
		<edge from-layer="304" from-port="0" to-layer="305" to-port="0" />
		<edge from-layer="305" from-port="1" to-layer="306" to-port="1" />
		<edge from-layer="306" from-port="2" to-layer="307" to-port="0" />
		<edge from-layer="307" from-port="1" to-layer="308" to-port="0" />
	</edges>
	<rt_info>
		<Runtime_version value="2024.6.0-17404-4c0f47d2335-releases/2024/6" />
		<conversion_parameters>
			<is_python_object value="False" />
		</conversion_parameters>
	</rt_info>
</net>
